UFAL/resultados/dqn_single_agent.pth (torch, 95873 bytes, 6 tensors)

net.0.weight f4 [128, 47]
0.08406084 0.108395025 -0.078648545 0.34613243 0.015048868 0.28498188 -0.044036698 0.31696233
0.24823977 0.28325036 0.09350967 0.14166303 0.2764028 0.081857376 0.0025372955 0.13755333
0.4213559 -0.012996051 0.35198304 0.23596953 0.50267714 0.1967069 0.38586697 0.18976729
0.3356116 0.12740499 0.3396882 -0.13783474 0.016219579 0.05199401 0.067797065 0.13323115
0.035058394 0.24132325 0.15821725 0.0401968 -0.017458197 0.32304606 0.010204285 -0.10732743
0.07757432 0.14292885 0.15000504 0.10051638 -0.06549272 0.19116409 0.16202594 -0.006418738
-0.017856488 0.05396062 -0.21529272 -0.029294714 -0.0059141195 0.06933272 -0.2110533 -0.0767476
-0.15635207 -0.122691855 -0.04813219 -0.0020206748 -0.015120526 0.1850179 0.14737779 0.04602686
-0.033636793 0.006598025 -0.0069522443 0.054166447 0.2459591 -0.10244374 0.15906695 -0.053844217
0.20505942 0.04957129 -0.2296851 0.081656635 -0.0026977784 -0.12736584 0.16890769 0.07575623
-0.2308226 0.16642527 -0.24869779 0.21827003 -0.059220698 0.04745266 -0.030567087 0.015612143
-0.3220985 0.041511197 -0.12986678 0.14884505 -0.21699238 0.19479604 0.014207821 0.09562486
-0.20048219 0.18360913 -0.11741931 0.23511434 -0.12746747 0.029347954 0.11804781 0.17611486
-0.029196793 -0.0034777673 0.15700743 0.19302057 0.25803933 -0.10686536 0.38494936 0.101108566
0.35499638 0.032970622 0.3936249 -0.037522595 0.18639846 0.11510568 0.28238726 0.12478641
0.14432515 0.10939769 0.027034936 0.021729426 -0.07426126 -0.011921235 0.1399862 0.26088196
0.09801114 0.15947008 0.03432223 0.15454827 -0.09221856 0.088308856 0.06746799 -0.07846635
0.079975754 -0.04818181 -0.028530441 0.018906336 -0.20511162 0.044772357 -0.22330016 0.1487695
-0.3427485 0.014670104 -0.35582855 -0.024245312 -0.20736875 -0.030277655 -0.18759546 -0.124507025
-0.26320648 -0.16538155 0.050923154 -0.01021652 0.20697173 -0.2637901 0.07869506 -0.35168806
-0.056910314 -0.29309744 0.0737454 -0.29262346 0.14062838 -0.41856423 -0.0349589 -0.14088519
0.17211401 0.049817413 0.07469618 -0.10288 0.13813274 0.011053499 -0.2807483 0.0010178515
-0.30834737 -0.124782346 -0.11614896 -0.12217791 -0.05006571 0.13933851 -0.3573519 -0.086979665
-0.24870084 -0.022990802 -0.2367348 0.16720043 0.09224645 0.14401087 -0.04334861 0.22780502
-0.042788718 0.2594705 0.12503606 0.13988274 0.10489942 0.26756394 0.060899585 0.13340482
0.18253961 -0.0129089905 -0.09206786 0.15014008 0.3295649 -0.019307004 0.25745025 0.17474055
0.35122472 0.20763741 0.12806171 -0.06344449 0.16305561 0.20415463 0.2864933 0.25576732
0.05341507 0.10204079 0.11748785 0.08113475 -0.0023591532 0.1562244 0.14278755 0.15460363
0.033785276 0.25017092 -0.078080736 -0.0028603077 0.13625 0.22836845 0.16621256 0.13708459
0.13534877 0.16843583 -0.01976887 0.08775297 0.12105431 -0.053757336 0.05558766 0.014494318
0.03930803 -0.18453504 0.09619361 0.14702748 0.1604144 -0.04387666 0.19414477 0.10277571
0.12483127 0.23812175 0.031111745 0.27265847 -0.021245593 0.30168924 0.05523821 0.55297565
00000000: 1728 ac3d 36fe dd3d 7d12 a1bd 4538 b13e
00000010: 878f 763c 25e9 913e d35f 34bd e348 a23e
00000020: 9132 7e3e 3106 913e ff81 bf3d 1d10 113e
00000030: ab84 8d3e d7a4 a73d c148 263b c8da 0c3e
00000040: f6bb d73e 64ed 54bc 1f37 b43e ffa1 713e
00000050: 73af 003f 896d 493e 5b90 c53e 5b52 423e
00000060: 49d5 ab3e 7476 023e 9deb ad3e 8d24 0dbe
00000070: ecde 843c acf7 543d 30d9 8a3d bf6d 083e
00000080: 6499 0f3d 711d 773e b403 223e 66a5 243d
00000090: 7e04 8fbc 4b66 a53e e02f 273c 7cce dbbd
000000a0: 49df 9e3d f15b 123e ec9a 193e 88db cd3d
000000b0: 0c21 86bd 85c0 433e 21ea 253e 4754 d2bb
000000c0: c547 92bc d005 5d3d b275 5cbe 78fb efbc
000000d0: 3bcb c1bb 50fe 8d3d 5b1e 58be d92d 9dbd
000000e0: c21a 20be de45 fbbd 4226 45bd 4c6d 04bb
000000f0: 15bc 77bc 5575 3d3e 34ea 163e a986 3c3d
00000100: bcc6 09bd 3f34 d83b a7cf e3bb a3dd 5d3d
00000110: b4dc 7b3e 06ce d1bd 72e2 223e c18b 5cbd
00000120: 19fb 513e 440b 4b3d 9232 6bbe 983b a73d
00000130: 36cd 30bb 316c 02be 23f6 2c3e 1526 9b3d
00000140: c25c 6cbe 636b 2a3e a2aa 7ebe 2e82 5f3e
00000150: 6791 72bd b85d 423d d467 fabc 13ca 7f3c
00000160: 18ea a4be a507 2a3d ccfb 04be d66a 183e
00000170: 4033 5ebe 9d78 473e ecc7 683c f7d6 c33d
00000180: 344b 4dbe 0804 3c3e 8979 f0bd d0c1 703e
00000190: d586 02be 1f6b f03c 0dc3 f13d 7457 343e
000001a0: 1d2e efbc 41eb 63bb 8ec6 203e 2fa7 453e
000001b0: bb1d 843e 3adc dabd 1518 c53e 0212 cf3d
000001c0: 16c2 b53e 340c 073d 3489 c93e 4bb1 19bd
000001d0: 3ddf 3e3e 87bc eb3d 1095 903e 0490 ff3d
000001e0: f9c9 133e e50b e03d 5f78 dd3c e901 b23c
000001f0: 4a16 98bd 4951 43bc 8b58 0f3e 5292 853e
00000200: 11ba c83d 204c 233e 7795 0c3d e741 1e3e
00000210: 16dd bcbd 46db b43d a82c 8a3d f7b2 a0bd
00000220: 54ca a33d 4a5a 45bd acb8 e9bc 76e1 9a3c
00000230: c808 52be 3863 373d cca8 64be 0857 183e
00000240: bb7c afbe e05a 703c 292f b6be 1b9e c6bc
00000250: 7958 54be d808 f8bc 0619 40be 8afd febd
00000260: 00c3 86be c859 29be cc94 503d 3163 27bc
00000270: 66f0 533e 7f0f 87be e02a a13d 7510 b4be
00000280: ca1a 69bd de10 96be d407 973d bed2 95be
00000290: e300 103e 0d4e d6be 1031 0fbd 3544 10be
000002a0: a83e 303e 580d 4c3d 50fa 983d c0b2 d2bd
000002b0: ab72 0d3e bc19 353c 3ebe 8fbe 6e69 853a
000002c0: b5df 9dbe e38d ffbd 82df edbd 6938 fabd
000002d0: b411 4dbd c1ae 0e3e d4f6 b6be 6522 b2bd
000002e0: 6fab 7ebe 3557 bcbc 9b6a 72be 9736 2b3e
000002f0: b5eb bc3d 9677 133e 508e 31bd b845 693e
00000300: 3943 2fbd 51d9 843e 7409 003e 6c3d 0f3e
00000310: 82d5 d63d 24fe 883e d871 793d 469b 083e
00000320: aaeb 3a3e 3b80 53bc 138e bcbd 52be 193e
00000330: bbbc a83e b929 9ebc 85d0 833e 30ef 323e
00000340: bad3 b33e e79e 543e 9c22 033e 2fef 81bd
00000350: 0df8 263e e90d 513e 40af 923e eff3 823e
00000360: c3c9 5a3d c3fa d03d 789d f03d fa29 a63d
00000370: 069c 1abb 4af9 1f3e e636 123e 6a50 1e3e
00000380: 6e62 0a3d 6716 803e cbe8 9fbd 0074 3bbb
00000390: 1f85 0b3e 6bd9 693e a033 2a3e e75f 0c3e
000003a0: de98 0a3e 717a 2c3e 53f2 a1bc d4b7 b33d
000003b0: 52eb f73d a730 5cbd e3af 633d 9379 6d3c
000003c0: 7501 213d c1f6 3cbe 2801 c53d 5f8e 163e
000003d0: ac43 243e 03b8 33bd e3cd 463e 127c d23d
000003e0: 89a7 ff3d 30d6 733e 0fde fe3c e499 8b3e
000003f0: 3d0b aebc 0377 9a3e 7641 623d d08f 0d3f

net.0.bias f4 [128]
0.3367707 -0.013397971 0.16441804 -0.029482814 0.32166913 -0.13716805 -0.19764675 -0.20003721
0.25749165 -0.27584583 -0.042484306 0.240165 -0.14483796 -0.30085728 -0.1367789 0.24353278
0.018454304 0.084523045 -0.138375 -0.052736923 -0.094645716 0.28713033 0.15175712 -0.002053989
0.074766524 -0.15914917 -0.1412739 -0.11119879 0.34262672 -0.14874025 0.12397506 0.053927947
-0.12877303 0.29476097 0.19404167 0.31655335 0.20899375 0.046569496 -0.12299149 -0.051803462
0.18637854 0.38028625 -0.034467086 0.30086222 -0.07218916 0.3272494 -0.043365467 0.045665555
0.27867353 0.28906283 0.22550778 0.27348974 0.26768535 0.18086608 0.09365992 0.3120467
0.1504778 0.25598136 -0.07768808 0.1881646 -0.040297642 0.022109931 -0.23757449 0.26540634
0.068375066 -0.14397886 0.13550362 -0.11973703 -0.092171356 0.0041343076 0.3263896 -0.13017094
-0.037937313 0.17855075 0.24739715 0.098225005 0.26176775 -0.022228925 0.035384994 0.26227418
-0.13751812 0.11671768 -0.22749749 0.10690221 0.22410949 -0.16569558 -0.09539168 -0.054801136
0.2966655 0.32928824 -0.07963892 0.17401205 0.2300518 0.16820042 0.27029297 0.26453614
-0.069650635 0.24698678 0.2676843 -0.25926676 0.30060053 0.22830087 0.18704619 0.041206125
0.14255676 -0.15564574 0.23252311 0.19451723 0.22312747 0.2614431 0.33079433 0.075064845
0.034638025 -0.011615632 -0.013696187 -0.052538235 0.21671242 0.10904758 0.23392425 0.22754623
0.0141269425 0.09643077 -0.08689598 -0.002105613 0.10628387 0.097240336 -0.016764974 -0.027285634
00000000: 366d ac3e 2a83 5bbc 345d 283e f185 f1bc
00000010: d1b1 a43e c875 0cbe e963 4abe 8ed6 4cbe
00000020: f2d5 833e aa3b 8dbe 0604 2ebd d0ed 753e
00000030: 6750 14be f709 9abe c50f 0cbe a860 793e
00000040: 7b2d 973c 6b1a ad3d 2db2 0dbe ac02 58bd
00000050: 9dd5 c1bd bf02 933e 3866 1b3e 389c 06bb
00000060: 311f 993d 00f8 22be 1baa 10be 31bc e3bd
00000070: c56c af3e 5d4f 18be a3e6 fd3d 8de3 5c3d
00000080: 14dd 03be e9ea 963e dcb2 463e 4813 a23e
00000090: 7502 563e a8bf 3e3d f6e2 fbbd de2f 54bd
000000a0: 04da 3e3e e1b4 c23e 5c2d 0dbd 9d0a 9a3e
000000b0: e9d7 93bd 3c8d a73e fd9f 31bd ce0b 3b3d
000000c0: 4cae 8e3e 0b00 943e 83eb 663e d906 8c3e
000000d0: 0e0e 893e f534 393e c6d0 bf3d 96c4 9f3e
000000e0: da16 1a3e fd0f 833e ee1a 9fbd 39ae 403e
000000f0: 240f 25bd e31f b53c ba46 73be 57e3 873e
00000100: 3a08 8c3d 326f 13be 76c1 0a3e b038 f5bd
00000110: 56c4 bcbd 1679 873b 8a1c a73e 884b 05be
00000120: 2864 1bbd 02d6 363e ae55 7d3e 312a c93d
00000130: 6c06 863e 6f19 b6bc dbef 103d cd48 863e
00000140: 8dd1 0cbe ae09 ef3d 1af5 68be 8cef da3d
00000150: f57c 653e 1aac 29be b75c c3bd 2877 60bd
00000160: 8ae4 973e 7898 a83e bb19 a3bd 3730 323e
00000170: b392 6b3e bb3c 2c3e d763 8a3e 4871 873e
00000180: fea4 8ebd 1aea 7c3e eb0d 893e 9dbe 84be
00000190: 50e8 993e b4c7 693e 0989 3f3e c1c7 283d
000001a0: 66fa 113e 9961 1fbe 8a1a 6e3e 862f 473e
000001b0: 877b 643e dfdb 853e e05d a93e 99bb 993d
000001c0: 9ae0 0d3d 7e4f 3ebc f965 60bc 5532 57bd
000001d0: dce9 5d3e 5654 df3d d789 6f3e e101 693e
000001e0: b174 673c 7f7d c53d 85f6 b1bd 53fe 09bb
000001f0: 5cab d93d f125 c73d b356 89bc 1f86 dfbc

net.2.weight f4 [128, 128]
0.032115944 0.19758543 -0.20951574 0.13331155 -0.020901311 0.095193475 -0.08258136 0.11739332
-0.011586793 -0.05204574 -0.15116118 -0.042079885 0.1564452 0.13968049 0.22568905 -0.016829278
0.026213981 -0.040029246 0.06452711 0.123130575 -0.20649506 0.3839918 0.1322099 -0.04674593
-0.04657622 0.08846215 0.037983984 0.16821787 0.09909971 0.17546141 -0.11517459 -0.040925972
0.07719552 0.051646303 -0.09104338 -0.038880333 0.017744143 -0.1416446 -0.15255636 -0.05244215
-0.026319442 0.07648127 -0.07393227 0.023465501 0.04545545 -0.045049515 0.12683767 -0.11657435
-0.004115005 0.11142813 -0.07273361 0.10837534 0.055936486 -0.057480235 -0.011097776 0.011368602
-0.22231112 0.13126935 -0.17910251 0.045350872 0.022905566 0.10587751 0.07859137 -0.046925627
0.18076056 -0.035671756 -0.0824389 -0.113197945 0.013402216 -0.036801174 0.054358985 0.017561989
0.15147553 0.04011079 -0.12900808 -0.22186098 0.01228763 0.13135661 0.041499373 0.09725407
-0.019350292 -0.08613249 -0.038822357 -0.10514291 0.0640965 -0.07349096 -0.09216924 -0.12431781
0.0030603711 -0.05938146 -0.15920421 0.13749786 0.04168205 0.12627581 -0.007662525 -0.03382364
0.11194778 0.022589212 -0.09340403 -0.1745618 -0.052782685 -0.13583387 0.03281738 0.0055340105
0.0051805237 -0.087659754 -0.064915754 0.0690896 -0.0244775 -0.0045594126 0.13559851 0.061865095
-0.11688546 0.13157086 0.14598794 0.04447088 0.10604079 0.11931279 0.11160505 -0.04419702
0.13585334 -0.02834855 0.047154035 -0.10100375 -0.10551881 0.12025592 -0.046448898 0.19251329
-0.044052884 -0.111038096 0.12543063 -0.080317736 0.1362988 0.14583692 -0.23834886 0.0056654564
0.04457902 -0.042623352 0.25167817 0.109392114 -0.024261367 0.091708854 -0.29377487 0.03778023
0.05451592 -0.0049039046 0.10921778 -0.36312288 0.18964837 0.021849351 0.053292867 0.01666337
0.08718528 0.026137605 0.06464769 -0.095709816 -0.134204 -0.30868974 0.09327068 -0.091823265
-0.038115133 -0.0422592 0.22749785 0.0100537315 -0.008532768 0.17033741 0.24963081 -0.09000733
0.07952773 0.19278735 0.12790537 0.03782244 0.036331728 0.12281208 -0.11956258 0.10177768
0.1869102 -0.18605788 0.071888246 0.025485374 -0.06650889 0.024935765 0.0022399733 0.13328853
0.06872362 -0.013085514 0.12141111 0.021250792 -0.016160715 -0.11220987 -0.055404738 0.018414421
-0.18070416 0.122496955 0.02923873 0.071502164 0.069893576 -0.08361439 0.062099196 0.12878798
-0.22939242 0.020047206 0.09211638 0.17772374 0.054899797 -0.15369223 0.008173008 -0.17087844
0.109569326 -0.08527265 0.07090491 0.25107905 0.035995338 -0.30408776 -0.06618692 0.11643215
-0.00843418 0.021950271 0.14490665 0.002049726 -0.09113569 0.020284628 0.09293986 0.009335399
-0.34580404 0.031958956 0.12936153 0.18183747 0.08243394 -0.0019255623 0.021199146 -0.013401167
0.050994217 0.15058112 0.12975529 -0.023560403 0.09664065 0.081719205 -0.09804665 0.003392509
-0.11303118 -0.097944595 -0.016774649 0.09430449 -0.07508637 -0.011456858 0.049209457 0.0841172
-0.22193177 0.002970609 0.016432423 -0.0917802 -0.19110836 -0.18513578 0.07672344 -0.10816605
00000000: 028c 033d d653 4a3e 4b8b 56be d382 083e
00000010: 3a39 abbc ccf4 c23d 6b20 a9bd e96b f03d
00000020: 88d6 3dbc ea2d 55bd ffc9 1abe f55b 2cbd
00000030: 2c33 203e 6708 0f3e 081b 673e 8edd 89bc
00000040: b4be d63c b5f5 23bd ca26 843d e22b fc3d
00000050: 7173 53be 939a c43e 0862 073e a978 3fbd
00000060: b5c6 3ebd a52b b53d 1895 1b3d 4e41 2c3e
00000070: caf4 ca3d 28ac 333e a8e0 ebbd fea1 27bd
00000080: af18 9e3d 138b 533d f474 babd fc40 1fbd
00000090: 2a5c 913c 480b 11be bc37 1cbe 94cd 56bd
000000a0: df9b d7bc 36a2 9c3d cd69 97bd b93a c03c
000000b0: 7e2f 3a3d d785 38bd bce1 013e 88be eebd
000000c0: 2ad7 86bb 6e34 e43d 5cf5 94bd e4f3 dd3d
000000d0: a81d 653d 6570 6bbd 72d3 35bc 5f43 3a3c
000000e0: 87a5 63be 796b 063e a666 37be d6c1 393d
000000f0: 74a4 bb3c 4fd6 d83d 83f4 a03d 1635 40bd
00000100: 4c19 393e 8c1c 12bd bad5 a8bd 53d4 e7bd
00000110: f894 5b3c d4bc 16bd 87a7 5e3d 29de 8f3c
00000120: 671c 1b3e 364b 243d b21a 04be 862f 63be
00000130: 0e52 493c 5982 063e 3ffb 293d 242d c73d
00000140: 8184 9ebc 3b66 b0bd 3104 1fbd 2a55 d7bd
00000150: 0745 833d 6e82 96bd 3ac3 bcbd 569a febd
00000160: 8290 483b f939 73bd 6e06 23be 3dcc 0c3e
00000170: ccba 2a3d 724e 013e eb15 fbbb a88a 0abd
00000180: e144 e53d 030d b93c 9d4a bfbd 54c0 32be
00000190: a832 58bd 0918 0bbe 846b 063d a556 b53b
000001a0: 62c1 a93b f586 b3bd 8df2 84bd d97e 8d3d
000001b0: 0a85 c8bc 2067 95bb 56da 0a3e 4166 7d3d
000001c0: a561 efbd 83ba 063e dd7d 153e 1927 363d
000001d0: ea2b d93d 445a f43d 3091 e43d ef07 35bd
000001e0: 231d 0b3e 383b e8bc 9724 413d 0edb cebd
000001f0: 3f1a d8bd bc48 f63d 3341 3ebd 3422 453e
00000200: cc70 34bd f167 e3bd e370 003e a07d a4bd
00000210: ea91 0b3e 4656 153e b911 74be 4ba5 b93b
00000220: 7e98 363d d395 2ebd f6db 803e f908 e03d
00000230: c6bf c6bc dad1 bb3d a969 96be 71bf 1a3d
00000240: 164c 5f3d efb0 a0bb 92ad df3d 3eeb b9be
00000250: 2f33 423e 69fd b23c 9f49 5a3d 9f81 883c
00000260: 328e b23d 881e d63c 0266 843d 8203 c4bd
00000270: c66c 09be 950c 9ebe b304 bf3d d60d bcbd
00000280: 9d1e 1cbd fc17 2dbd 32f5 683e 68b8 243c
00000290: 06cd 0bbc ee6c 2e3e 389f 7f3e c355 b8bd
000002a0: 6fdf a23d 0c6a 453e a0f9 023e b4eb 1a3d
000002b0: 94d0 143d e684 fb3d 3add f4bd d170 d03d
000002c0: 6365 3f3e f585 3ebe 253a 933d b4c6 d03c
000002d0: d035 88bd 1746 cc3c 84cc 123b ca7c 083e
000002e0: f8be 8c3d a064 56bc 63a6 f83d 2416 ae3c
000002f0: 7a63 84bc 4ace e5bd 14f0 62bd d7d9 963c
00000300: 830a 39be afdf fa3d 1086 ef3c ba6f 923d
00000310: 5d24 8f3d 053e abbd ba5b 7e3d ffe0 033e
00000320: d9e5 6abe 0a3a a43c 83a7 bc3d 36fd 353e
00000330: 9cde 603d 7f61 1dbe 15e8 053c c2fa 2ebe
00000340: e265 e03d 6da3 aebd 9836 913d 6f8d 803e
00000350: d96f 133d 64b1 9bbe 028d 87bd fb73 ee3d
00000360: 842f 0abc 0ed1 b33c 6962 143e b254 063b
00000370: 59a5 babd f32b a63c 4157 be3d 80f3 183c
00000380: 3a0d b1be 65e7 023d 5977 043e 9a33 3a3e
00000390: 20d3 a83d 2663 fcba d5a9 ad3c 9190 5bbc
000003a0: 50df 503d f031 1a3e 92de 043e bf01 c1bc
000003b0: 88eb c53d 665c a73d afcc c8bd db54 5e3b
000003c0: e47c e7bd 2d97 c8bd fd6a 89bc b622 c13d
000003d0: e2c6 99bd 8cb5 3bbc db8f 493d a345 ac3d
000003e0: 1542 63be 8dae 423b 4a9d 863c 42f7 bbbd
000003f0: e9b1 43be 3c94 3dbe 2e21 9d3d 2986 ddbd

net.2.bias f4 [128]
-0.078537256 -0.05451744 -0.006365165 -0.08604256 -0.03114521 -0.18516728 0.28114647 0.0349724
0.008862652 0.21693619 -0.25528744 0.1719244 -0.06706403 -0.1567386 0.03924543 -0.0153412875
-0.07424388 0.19439621 0.10704877 -0.019419314 0.20417091 0.03361329 -0.004446321 0.10320897
0.11745119 0.05790146 -0.20131244 -0.23841187 0.20802729 0.10631682 0.1935177 0.086093836
0.120814495 0.12276612 -0.08274756 0.015558591 -0.09169084 -0.09711739 0.18438943 0.24329135
-0.102021255 -0.12516615 0.11654667 0.112233184 0.12289234 -0.045565765 0.019978281 0.2719133
-0.053433675 0.17957756 0.07837691 0.175273 0.08993117 0.1644027 0.124855354 -0.22486646
0.15231353 0.19869378 0.08906362 0.028163472 -0.107984684 0.019252503 0.31397915 0.21959133
0.13155526 -0.045412235 0.044722296 -0.17011467 -0.15921107 0.054165393 0.10732197 0.13881059
-0.08268646 0.12600827 0.15667163 0.13395633 0.010429978 -0.06739725 0.030574773 0.10431455
0.007025594 0.1001127 0.15312016 0.04196272 0.26371056 -0.08115409 -0.15538482 0.015976924
0.07236837 0.01412907 -0.18422519 -0.07927981 0.22927509 0.05696626 0.05662299 -0.1063656
-0.2609783 0.007565655 -0.011451349 -0.104579784 0.236158 0.08509463 0.008014691 -0.05088246
-0.059267808 0.20484851 -0.1865305 0.17797284 0.025360508 -0.16596077 0.20403491 -0.0069824997
-0.0950254 0.20200744 -0.12444074 0.20786306 0.06838023 0.22336397 0.16507177 0.16294885
-0.08731604 0.10596254 -0.11494483 -0.11173619 0.118199766 0.12875882 0.16983522 0.22268271
00000000: 24d8 a0bd ae4d 5fbd e092 d0bb 1537 b0bd
00000010: 3d24 ffbc 7e9c 3dbe 6ef2 8f3e 383f 0f3d
00000020: a834 113c 8524 5e3e 09b5 82be f30c 303e
00000030: de58 89bd 1580 20be d1bf 203d 065a 7bbc
00000040: 2d0d 98bd cd0f 473e 633c db3d 4115 9fbc
00000050: 2e12 513e 17ae 093d 72b2 91bb 395f d33d
00000060: 408a f03d 152a 6d3d d924 4ebe 3e22 74be
00000070: 1b05 553e a2bc d93d 8129 463e f751 b03d
00000080: 976d f73d ce6c fb3d 8e77 a9bd 76e9 7e3c
00000090: 68c8 bbbd 7be5 c6bd 95d0 3c3e 5e21 793e
000000a0: 85f0 d0bd 8e2b 00be 05b0 ee3d 83da e53d
000000b0: fbae fb3d 2ba3 3abd 7ea9 a33c 3838 8b3e
000000c0: 45dd 5abd 2ee3 373e 1384 a03d c47a 333e
000000d0: d52d b83d 2e59 283e 2ab4 ff3d 6543 66be
000000e0: 14f8 1b3e 6276 4b3e fd66 b63d 15b7 e63c
000000f0: 1327 ddbd 6db7 9d3c e0c1 a03e 8ddc 603e
00000100: 6cb6 063e 2e02 3abd ba2e 373d 8a32 2ebe
00000110: 3a08 23be 88dc 5d3d 9fcb db3d 5d24 0e3e
00000120: 8557 a9bd 5008 013e 876e 203e d92b 093e
00000130: 80e2 2a3c 9207 8abd f277 fa3c dea2 d53d
00000140: f436 e63b e307 cd3d 88cb 1c3e 1ae1 2b3d
00000150: 1205 873e 1e34 a6bd 331d 1fbe 0ae2 823c
00000160: de35 943d 9d7d 673c 87a5 3cbe 745d a2bd
00000170: 17c7 6a3e 7455 693d 82ed 673d 35d6 d9bd
00000180: f39e 85be 50e9 f73b 709e 3bbc ed2d d6bd
00000190: 67d3 713e 1846 ae3d 0d50 033c 206a 50bd
000001a0: cdc2 72bd cfc3 513e da01 3fbe 833e 363e
000001b0: d7c0 cf3c 9ff1 29be 87ee 503e 74cd e4bb
000001c0: ad9c c2bd 0adb 4e3e c9da febd 0eda 543e
000001d0: ef0a 8c3d 86b9 643e 9308 293e 10dc 263e
000001e0: c1d2 b2bd e302 d93d 3268 ebbd f2d5 e4bd
000001f0: b812 f23d 5ad9 033e 49e9 2d3e f006 643e

net.4.weight f4 [4, 128]
0.28957638 0.18099147 0.04953047 -0.0071562156 -0.27047 -0.07743637 0.28400958 0.24930914
-0.10773833 0.00851662 -0.1356925 0.33030084 0.10902398 -0.23133887 -0.04129935 0.12726544
-0.014632197 0.12865303 -0.2627626 -0.30521268 0.3480037 0.063286565 0.303573 0.26405612
0.045417603 0.16386586 -0.13140021 -0.058353283 0.0696875 0.31078365 0.20198596 0.031319924
-0.2797088 0.16824597 0.056801982 0.27670616 -0.040911395 -0.02126728 -0.0018775364 0.09312136
-0.15219195 -0.115174875 -0.05316338 0.27841213 0.0700458 -0.11295606 -0.038225926 0.22908893
-0.01046474 0.15985103 0.12797143 0.23830509 -0.05621574 0.175556 0.32271236 -0.28954932
0.29111943 0.2967401 -0.2788979 -0.07479711 -0.30202562 -0.3230498 0.35185525 0.21979466
0.0021943017 -0.13439049 0.05857954 0.01707892 -0.10383392 -0.33399847 0.07184197 -0.29088238
-0.15874512 -0.30904526 0.2726659 0.27281138 -0.0048648287 0.11141893 -0.36942193 -0.0035205511
0.13188264 0.19457762 0.24717145 0.053700406 0.23224325 0.47319657 0.2760052 -0.20845656
0.087559864 0.4604106 0.018458864 -0.27206975 0.030714422 -0.09827684 0.08864523 -0.16764814
-0.16514108 0.043480657 0.028678805 -0.022575729 0.17098196 0.046342753 -0.017358713 -0.00291273
-0.2995893 0.115885705 -0.036517583 0.0073329946 -0.030507933 0.009030158 0.2110896 0.019631343
-0.0869252 0.2171935 -0.13640152 -0.02125303 0.28281945 0.098532975 -0.08360958 -0.087031044
0.03157319 0.39123273 0.316178 0.090857334 0.019763893 0.025583025 0.20873766 0.30309448
0.16235885 0.20000081 0.08384139 -0.05938925 -0.027793892 0.17905374 0.26674396 0.24501552
-0.14247793 0.20399754 0.018726403 0.28292367 0.21600887 -0.13324161 0.13862132 -0.31255138
-0.20082113 0.27175882 -0.30838183 -0.06701583 0.29563433 0.06056724 0.17439713 0.23378417
0.12909323 -0.058916744 -0.18500875 0.0904963 -0.0054625026 -0.07154979 0.15623762 -0.03645633
-0.3638952 -0.096075185 0.04848402 0.3396958 0.13353172 -0.37429067 0.050804637 0.2651197
-0.20521401 0.07558722 0.16073972 0.2535297 0.2426672 0.042437598 -0.10009265 0.1905105
-0.08376741 -0.10040483 0.21471839 -0.008379679 0.004230851 0.2708759 0.14042555 0.199889
0.29699442 -0.04770293 -0.43674275 0.14666821 0.07427501 -0.15253754 0.13079125 0.05964826
0.1872412 -0.116593815 -0.084724486 -0.15151297 0.25199535 -0.37057725 0.17292373 -0.3230891
-0.2073787 -0.4242956 -0.0021444035 0.24448945 -0.06919637 -0.2388229 -0.37362656 0.16940147
0.25673702 0.2971572 0.1326071 0.03086633 0.15246703 0.03813771 -0.047835965 -0.22172715
0.23914176 -0.65204614 0.13409995 -0.085087985 0.22919214 0.19127533 0.11169194 -0.18012178
0.16645968 -0.02783129 0.006940834 -0.08334675 0.2970795 0.033639207 -0.16896038 -0.14913502
-0.25780207 0.2700583 0.09244774 0.01641621 0.21703497 0.19090036 0.2318984 -0.12121284
0.02349944 -0.0013398003 0.25685832 0.19886175 0.27588752 0.18379427 0.15202023 0.17713399
-0.09985344 -0.04381792 0.043374836 0.05458216 0.07221953 0.17464517 0.31049043 0.2987104
00000000: 5b43 943e d455 393e 76e0 4a3d b07e eabb
00000010: 0b7b 8abe f696 9ebd b469 913e e54a 7f3e
00000020: eaa5 dcbd 4b89 0b3c faf2 0abe 311d a93e
00000030: f747 df3d 19e4 6cbe 8229 29bd df51 023e
00000040: e2bb 6fbc 9fbd 033e d288 86be d644 9cbe
00000050: 8a2d b23e 639c 813d ec6d 9b3e 5d32 873e
00000060: cf07 3a3d 74cc 273e c78d 06be da03 6fbd
00000070: 52b8 8e3d 091f 9f3e 68d5 4e3e 5249 003d
00000080: fe35 8fbe ac48 2c3e 32a9 683d 6eac 8d3e
00000090: b592 27bd b838 aebc ab17 f6ba 69b6 be3d
000000a0: 35d8 1bbe cee0 ebbd d8c1 59bd 098c 8e3e
000000b0: 2c74 8f3d 8255 e7bd ca92 1cbd 4a96 6a3e
000000c0: 4d74 2bbc fdaf 233e f10a 033e 4006 743e
000000d0: 7a42 66bd f4c4 333e 8e3a a53e cf3f 94be
000000e0: 9b0d 953e 52ee 973e b5cb 8ebe 3a2f 99bd
000000f0: 1aa3 9abe c966 a5be 5f26 b43e da11 613e
00000100: 46ce 0f3b a99d 09be 1af1 6f3d 17e9 8b3c
00000110: e1a6 d4bd d901 abbe e221 933d 89ee 94be
00000120: 158e 22be 2e3b 9ebe dd9a 8b3e efad 8b3e
00000130: 2469 9fbb 9c2f e43d df24 bdbe 0cb9 66bb
00000140: 3e0c 073e 5b3f 473e 831a 7d3e f5f4 5b3d
00000150: 2dd1 6d3e d246 f23e 8e50 8d3e a375 55be
00000160: 9652 b33d f0ba eb3e 0b37 973c ba4c 8bbe
00000170: d09c fb3c 5e45 c9bd a18b b53d f4ab 2bbe
00000180: be1a 29be c618 323d d0ef ea3c bcf0 b8bc
00000190: e515 2f3e e6d1 3d3d dc33 8ebc 80e3 3ebb
000001a0: c563 99be 7c55 ed3d 7693 15bd 9e49 f03b
000001b0: c6eb f9bc 3af3 133c df27 583e e9d1 a03c
000001c0: d705 b2bd f967 5e3e d7ac 0bbe d61a aebc
000001d0: b6cd 903e a8cb c93d 803b abbd 553d b2bd
000001e0: e452 013d a84f c83e 15e2 a13e 6913 ba3d
000001f0: e3e7 a13c 7e93 d13c 53bf 553e 332f 9b3e
00000200: 6641 263e 03cd 4c3e 09b5 ab3d 2442 73bd
00000210: 04b0 e3bc dd59 373e aa92 883e 59e5 7a3e
00000220: bce5 11be bbe4 503e 1d68 993c 5fdb 903e
00000230: 6e31 5d3e 7d70 08be bff2 0d3e bc06 a0be
00000240: 0ea4 4dbe f923 8b3e 39e4 9dbe 983f 89bd
00000250: 625d 973e 5b15 783d 2995 323e 1e65 6f3e
00000260: 0431 043e af52 71bd ef72 3dbe 2056 b93d
00000270: cbfe b2bb b288 92bd c1fc 1f3e 3c53 15bd
00000280: 7950 babe 11c3 c4bd 2e97 463d 9cec ad3e
00000290: 8abc 083e 07a3 bfbe 8618 503d c5bd 873e
000002a0: 9f23 52be 79cd 9a3d f498 243e a5ce 813e
000002b0: c07d 783e 0cd3 2d3d 60fd ccbd 2f15 433e
000002c0: 3f8e abbd 0ca1 cdbd 23df 5b3e ec4a 09bc
000002d0: f3a2 8a3b 3fb0 8a3e b7cb 0f3e b4af 4c3e
000002e0: a70f 983e 2664 43bd bf9c dfbe 3130 163e
000002f0: 7f1d 983d cd32 1cbe 24ee 053e bc51 743d
00000300: 28bc 3f3e bdc8 eebd 0884 adbd 3726 1bbe
00000310: 8905 813e 4dbc bdbe eb12 313e ef6b a5be
00000320: 155b 54be 463d d9be 1f89 0cbb 715b 7a3e
00000330: d4b6 8dbd fe8d 74be fb4b bfbe 9477 2d3e
00000340: 0973 833e fd24 983e 28ca 073e 63db fc3c
00000350: 5120 1c3e 4a36 1c3d a5ef 43bd 710c 63be
00000360: 94e1 743e 7fec 26bf 7f51 093e 9c42 aebd
00000370: 58b1 6a3e aedd 433e bebe e43d d871 38be
00000380: 6874 2a3e 72fe e3bc f06f e33b b3b1 aabd
00000390: ce1a 983e 44c9 093d f303 2dbe dab6 18be
000003a0: a2fe 83be 1545 8a3e 3e55 bd3d 4a7b 863c
000003b0: 6a3e 5e3e 627b 433e c676 6d3e 703e f8bd
000003c0: e681 c03c 3d9c afba ef82 833e 6aa2 4b3e
000003d0: 2141 8d3e 9134 3c3e 31ab 1b3e 9d62 353e
000003e0: f67f ccbd 6b7a 33bd d0a9 313d 8b91 5f3d
000003f0: d5e7 933d 2fd6 323e 9af8 9e3e 92f0 983e

net.4.bias f4 [4]
0.05318678 0.03458436 0.1456285 0.16227077
00000000: 62da 593d 54a8 0d3d a31f 153e 4f2a 263e
