UFAL/resultados/dqn_single_agent.pth (torch, 95937 bytes, 6 tensors)

net.0.weight f4 [128, 47]
00000000: b61e fb3a a4d0 be3d 567c 19bc d608 243e
00000010: e393 bb3d 0fa6 e63c 93b2 9c3c dc5b 5d3d
00000020: 64e6 10bc 29c2 163d 9b86 c23d 4b99 fc3d
00000030: 89ea 153e c14a 153d fe18 ad3d f8d6 2b3e
00000040: 2c14 0cbd 7975 cb3d b71f 783c d7e1 85bb
00000050: 89d7 b3bc 8de9 eabd 3b52 d53d b321 35bd
00000060: 8fe5 34bd c0b7 0c3e 798e b0bc 6c34 cebe
00000070: 8458 353d ce82 f6bb 1092 533e 2eb8 53bd
00000080: 8ced 2dba c4c2 8abc 8596 96bb 2cc0 c93d
00000090: d683 eabd c541 493e 549b 77bd f4fa b73d
000000a0: 8a5c 1d3e 66dd 623e 815e 1f3e da8b 263e
000000b0: ba45 823d 7443 433d afc0 4ebe a102 f73c
000000c0: 1df6 c8be 6569 0abd 7ca5 ce3e 93a2 9f3d
000000d0: 48c3 ba3e c9cb 0bbe f181 9c3e c5e9 8e3d
000000e0: 3bc2 983e d1fa ab3d eabf a33d 308e b23d
000000f0: b169 4f3e 077e 8bbd 0c3a b33d 4b62 873e
00000100: d21d 943b 7ce1 783e 8572 dcbc 7087 d13e
00000110: 105f 273d 4ba3 7d3e ad80 043e 296c 833e
00000120: 90f6 343e 79e9 753e 38c6 753e f80f 39be
00000130: 1eb1 223e ef8e babc d0ff 783d 46f4 be3d
00000140: 019e 753d ccdb b73d c508 3a3e a589 fc3c
00000150: adb5 8e3e 96f1 40bd 941a a93d 83e7 cf3c
00000160: 2f8c 823e b8c6 4d3d 369d 7b3e fb6d 783d
00000170: e446 083e cddf e63d 8b17 1dbe dd47 8a3e
00000180: aa6f 5b3e b095 73bd 49d3 2bbc 911c c43b
00000190: 783c 0f3e 8117 0abe d2f4 96bd 24e9 9fbd
000001a0: 37b7 37bd ebfe 3ebe e899 053e 6eca b9bd
000001b0: ca97 7f3e 0364 f03c d68e 45be 9475 afbd
000001c0: 0fa6 dbbc 1172 ff3d 16b8 54be c8be c23a
000001d0: 9163 15bd 29f4 d73c 52c4 203d 5d54 88bd
000001e0: 74d1 d9bc 8609 8a3e d729 82bd 4d3c dfbd
000001f0: 927c aeb9 af0f 633d 440b 063e 0c3c 7fbd
00000200: c4f5 db3d 49ab 65be af71 5c3e 43f4 43be
00000210: 5c56 f7bd 0087 f33d e0f3 233e 82a4 bfbd
00000220: 49c7 223e 53cd e9bd 5c3e f23d c17b ecbd
00000230: 8190 383e 8008 db3c d996 8c3d 6df4 0d3e
00000240: eece a8be 854d 563e 5e22 06bf fcee 8c3d
00000250: c1af 01bf 67f7 c13d 622a f3bd f174 03be
00000260: fdec 05be 86c3 31bd 6ebc 5ebe e32d 373e
00000270: 873c 383e 88ad 52be e2e1 fdbd 9c8d b1be
00000280: dd1a 433d ee97 adbe 5019 e6bc 9832 a1be
00000290: 1eb3 17bd 353b cebe 71fa 283c 9c92 8ebe
000002a0: a5ae 6f3d d9df 643e eb74 aa3c 65ed 9a3d
000002b0: 9214 053d d557 08bd d548 09bf 660f 5d3c
000002c0: e4fc a2be a9fd d63b 3fd8 ccbe a69a 08be
000002d0: 788e 843c 5b32 e73d 1fcf f7be f078 bb3d
000002e0: 3934 fabe 04e7 893d 30d2 d2be 15a1 173e
000002f0: 9970 29bd cde2 5e3e d6fa adbd c9ac 3ebe
00000300: 1bb5 bf3d 5a48 e1bd d22f 653e 3157 7fbe
00000310: c2fe 073e 6386 22be 23ba c8bd e6b6 813c
00000320: 0768 e53d 4d07 f7bd b4fe 0b3e 16c7 2cbd
00000330: f847 01be a021 c93d 5a13 f8bc fe18 533e
00000340: c4e4 98be a93f 383e ea36 e0bd 8d24 933d
00000350: 0bf3 a1bd 3fe4 603c 5463 8a3b 8943 603e
00000360: 35c9 4dbc 1312 b5bd 1833 d03d 7652 3dbd
00000370: 1062 0f3e 7c18 5cbe 9105 4c3d 6fc9 423d
00000380: 966a e43d 4c4c 4bbe a041 233c 7893 eb3d
00000390: 7a2b 083e 0314 15be aff9 513e 158b 0b3d
000003a0: 28a2 6bbd c8dc b43d fdcd 9bba 4067 34be
000003b0: 18ed 523d 2ebb 0ebd 9e4e d9bd 3303 813d
000003c0: afb2 efbc ce06 193e 6826 f63d 8bcb 003e
000003d0: 6f96 003e 1f14 353e 056f cdbd f85b 0a3e
000003e0: b0d3 d93d fe70 643e b7fc 12be a3d6 d93d
000003f0: 5ad4 16be ed04 e9bb 576e 963d d3c5 bf3a
0.0019158933 0.09317139 -0.009368023 0.16018996 0.091590665 0.028155355 0.01912812 0.054042682
-0.008843992 0.03680626 0.0949833 0.12333926 0.1464025 0.036448244 0.084520325 0.16781223
-0.034198925 0.099345155 0.01514428 -0.00408576 -0.021953361 -0.114703275 0.10416075 -0.04422159
-0.044164237 0.1374197 -0.021552311 -0.4027437 0.04427387 -0.0075229174 0.20661187 -0.05168932
-0.00066348235 -0.016938575 -0.00459558 0.09851107 -0.11450927 0.19653995 -0.060450867 0.089834124
0.15367332 0.2215477 0.15563394 0.16264287 0.063609555 0.04767175 -0.2019069 0.03015262
-0.3925027 -0.03379192 0.4036063 0.077946804 0.36477113 -0.13651957 0.30567887 0.06978182
0.29835686 0.08397449 0.07995589 0.08718526 0.20255162 -0.06811147 0.08751306 0.2644218
0.0045201564 0.24304765 -0.026910076 0.40923643 0.040862143 0.24769323 0.12939711 0.25668457
0.17672181 0.24014844 0.24001396 -0.18072498 0.15887877 -0.022773234 0.060790837 0.09323935
0.059965137 0.0897747 0.18167408 0.030827353 0.27872983 -0.047105394 0.082570225 0.025378948
0.25497577 0.05023834 0.2457169 0.06065176 0.13308293 0.11273155 -0.15341012 0.27007952
0.21429315 -0.059468925 -0.010487386 0.0059848507 0.13987911 -0.13485529 -0.073709145 -0.0780814
-0.04485246 -0.18651931 0.13046992 -0.090718135 0.24960247 0.029344564 -0.19292769 -0.08567348
-0.026812581 0.12472928 -0.20773348 0.0014857883 -0.036471907 0.026361542 0.039249726 -0.06656716
-0.026589133 0.2696039 -0.063556366 -0.10900173 -0.00033280678 0.05543488 0.13090235 -0.062313125
0.107402354 -0.22428621 0.21527742 -0.19136147 -0.120770186 0.118909836 0.16011 -0.09357549
0.15896334 -0.114161156 0.118283 -0.11547042 0.18023874 0.026737452 0.068647094 0.13862772
-0.32970375 0.20928009 -0.5239619 0.0688152 -0.50658804 0.094710164 -0.11873318 -0.12837578
-0.13078685 -0.043399356 -0.21751568 0.17888598 0.1799184 -0.2057401 -0.12396599 -0.34678352
0.04763304 -0.33904976 -0.028088242 -0.31483912 -0.037036054 -0.40279546 0.010313616 -0.2784623
0.058516163 0.22351016 0.020807704 0.07564811 0.03249032 -0.03328689 -0.5362676 0.013492441
-0.31833565 0.0065610004 -0.40008733 -0.13340244 0.016181216 0.112889014 -0.48400208 0.09153926
-0.48867968 0.06733516 -0.41175985 0.14807542 -0.041367147 0.21766205 -0.08495109 -0.186206
0.09360715 -0.11000128 0.22381523 -0.24935605 0.13280776 -0.15871577 -0.09801128 0.015834283
0.11201482 -0.120619394 0.1367138 -0.04218205 -0.1262511 0.098208666 -0.030282665 0.20615003
-0.29862034 0.17993034 -0.10947974 0.07184706 -0.07907685 0.013726293 0.0042232666 0.21900763
-0.0125601785 -0.08841338 0.10165995 -0.04622122 0.14002252 -0.21493715 0.049809996 0.047555383
0.11153142 -0.19853324 0.009964377 0.11502737 0.13297835 -0.14558415 0.20505403 0.034068186
-0.05752769 0.08831173 -0.0011886951 -0.17617512 0.05149564 -0.034846477 -0.10610698 0.06299438
-0.029260008 0.14944002 0.12019044 0.12577645 0.12557386 0.17683457 -0.10030941 0.13511646
0.10636079 0.22308728 -0.14354216 0.10636642 -0.14729443 -0.007111183 0.073452644 0.00146311

net.0.bias f4 [128]
00000000: 7e7d 4b3e 6e70 163e 9c43 0fbe 5b39 55be
00000010: edd6 eebd 4340 babe 4bd1 293e da75 c8be
00000020: 2656 c7bd ecf5 433e 7ec7 8cbb 9437 efbd
00000030: 1f71 63be 192d 02bd 9d00 fbbd eec1 d5be
00000040: bb80 6d3e b698 72be ab97 cebd 870f d03c
00000050: 07d0 eabd 4ddf 353e 58fc 8bbe 6ef9 a93e
00000060: 511b ab3e 1dba 343d 5a72 8d3d 16e3 8f3d
00000070: a66d c9bd ce35 4ebd 957f 5e3e 3246 90bd
00000080: 1036 233e 1991 9dbc 6c07 4f3b 8132 2d3d
00000090: 46ea 39be 5a4d 9ebc e265 c5bd 7e03 04bc
000000a0: 7450 efbe 8900 91bd 1d9b e73c 986d 943d
000000b0: de46 b9be ee9a 28be ddba 0abe f751 62be
000000c0: d7a6 8abd 153c f83d 825e 2c3e 8e92 e7bd
000000d0: 431f 043e 8361 5abd 42dd 783e a501 3a3e
000000e0: c215 0c3e 0c57 013e 60f1 bd3e 13dc 80be
000000f0: 0e14 a23e f958 66bd f9de dbbd 3db6 8abe
00000100: 54e7 35be 2bfc 113b af91 81be 4b6c 92be
00000110: 7cda c0bd fe13 42be b75e a7be fd8c a0be
00000120: b18e 26be 4b04 9e3d cf0d f8bd a14c 023e
00000130: acda a0be 3d74 38be c812 12be c9d4 4cbe
00000140: 2dab b33a cf3b 8d39 2c41 2ebc 4bb7 d93d
00000150: 09e8 39be a8e8 273d 904f f0bd ccfa a2bd
00000160: b1fe bcbe 3469 fdbd 49f9 a7bd f387 4dbe
00000170: 9629 023e ddb8 22be 9438 6e3d 0874 b0bd
00000180: db45 043e 2c8a 013e 64ba b3be fd26 983e
00000190: 1521 b43c f72d 473e 0b9b 5b3c fc43 25be
000001a0: 4043 6bbe c0d9 e73d 3a5e afbe 1d1e b5bd
000001b0: eedf 383e ceb5 53be d266 b43e 98a2 c1bc
000001c0: ad1e 8a3c fc36 26be 1bf6 f63d 8588 e1bd
000001d0: efa5 42bc aee1 ee3c fc61 7b3d 7091 97be
000001e0: 81d6 363d 0943 923e 7085 943c 5ef9 953e
000001f0: 2ce6 513d 1036 1c3e 8808 953e d319 623d
0.1987209 0.14691326 -0.13990635 -0.2082266 -0.116620876 -0.36377153 0.16583745 -0.39152414
-0.097332284 0.1913678 -0.0042962423 -0.116805226 -0.22211121 -0.03178129 -0.12255976 -0.4174952
0.23193638 -0.23691067 -0.10087522 0.025398029 -0.11465459 0.17760964 -0.2734096 0.33198112
0.33419278 0.044122804 0.069065765 0.07025735 -0.09835367 -0.05034428 0.21728356 -0.07044639
0.15938592 -0.019234227 0.0031590117 0.042284492 -0.18155774 -0.019323993 -0.09638573 -0.008057473
-0.46741068 -0.0708018 0.028272206 0.07247466 -0.3618688 -0.16465351 -0.13547845 -0.2210158
-0.067701034 0.12120835 0.16832927 -0.1130725 0.1290255 -0.05331565 0.24303153 0.1816469
0.13680175 0.12630862 0.37098217 -0.25167903 0.31655926 -0.056237195 -0.10735888 -0.27092162
-0.17764026 0.0022275548 -0.2530646 -0.28598246 -0.094166726 -0.18952939 -0.3268945 -0.31357566
-0.1626537 0.077156626 -0.12112009 0.12724544 -0.31416833 -0.18013091 -0.14264977 -0.20003046
0.001370763 0.00026938177 -0.010635655 0.106306635 -0.1815492 0.040993363 -0.11733925 -0.07957992
-0.36913064 -0.123735815 -0.08201844 -0.20071392 0.12711176 -0.15890832 0.058159426 -0.08615881
0.12917273 0.12650365 -0.35103142 0.29717246 0.021988431 0.19451128 0.013403664 -0.16139215
-0.22974873 0.113208294 -0.34251577 -0.08843634 0.18054172 -0.20674822 0.35234696 -0.023637101
0.01686033 -0.16231912 0.1205866 -0.11012367 -0.011880382 0.029160347 0.061372742 -0.29603148
0.04463816 0.2856677 0.018130034 0.29291815 0.0512449 0.15254998 0.2910807 0.05520041

net.2.weight f4 [128, 128]
00000000: 997a 873c 9d54 213d 7aac 263c 22e3 8dbd
00000010: c04a 14bd e604 83bd fd5f 383e 8624 cc3c
00000020: 25cb 8ebd 0c07 313e c715 c43c 8e66 9f3d
00000030: 24ec 473d 1be5 223e 7904 123d 9311 1e3e
00000040: a677 b9bd 6657 0a3d 29e3 493e f0c9 c33d
00000050: 31f2 f1bc 0979 423e d7f9 b13d 51c6 013e
00000060: c42a 05bb 160d 243e f1f0 eb3d e3fe c73d
00000070: d55d f43a 666a 703e b448 523e 579d 653e
00000080: 5cd0 9c3d b1ec 7f3d 5b54 5e3e f8b7 be3d
00000090: fa46 153d 78c3 e03d 4fba 973d 3009 653e
000000a0: 01a8 d33d f358 1d3e 5e31 4e3c 45da f6bb
000000b0: 894d 6fbd 1f6a 22bc 1b2d 1b3e 1213 4e3d
000000c0: 6c12 a8bd f6a6 a3bb 0734 883d 7028 8fbb
000000d0: cfe8 103f d344 97bc 8c2d 9a3d fdcb 783d
000000e0: 581d 3e3d 800a c4bd ed8f 5a3c bdd0 abbd
000000f0: d63b 4e3e f1ee b03d a8ac 33bd 657c a23d
00000100: 3818 fd3c afe8 533d 6e5a f43c 1e36 0fbc
00000110: c12f c53d 13f5 51bd 68c0 813c 24e8 e1bd
00000120: c601 73bd 5ef6 793e 22ea 133d 9d9d fe3d
00000130: 0079 b5bc d698 b43d 07db 0c3c 4a69 e13d
00000140: 4eca 353e a1c5 8dbe 8d43 123e b3c6 5d3e
00000150: de01 3d3d 4cc5 003d 7032 05be b05b c93d
00000160: a36d 703d 8b4e 523c 8569 15bd fc87 abbe
00000170: a45c 143e 6ce9 bc3d c075 9a3d c487 febc
00000180: 74f5 15bd ebe4 b83d d89a 263e e5b2 d63b
00000190: f8c7 713d f3e5 3e3e 6c40 06bd 06e9 f13d
000001a0: 0188 2ebb 69af 4f3e 3469 98bc c123 f63d
000001b0: a09c b53d a6b6 c5bd 44dd 073e 3b69 293e
000001c0: 17f0 033e e84e 56bd 4e3b 633d a0c0 243e
000001d0: 08b6 27bc 5ad1 813d 7a43 083e 5a05 733c
000001e0: 1622 c23e affa dc3d 154c a73e f7a1 313e
000001f0: ae3f 013e 1d03 8c3d af5f ea3d e40d 293e
00000200: 0382 35be a6bb 963d fe3e f03d 961c ed3d
00000210: 1de5 f03c d550 243e d865 c0bd cc44 413e
00000220: 9f81 7abe a6f6 b4be c878 78be 6a33 303e
00000230: 5a4f 80bb 6002 81be 7585 a93d 0bd3 033e
00000240: 2f7a 15be 57de d33d 7883 d7bd bceb 083e
00000250: acd6 90bd 453d f8bc eb52 623e f083 c3bd
00000260: bf3b b8be 8861 edbd 30e3 39be 4576 eebd
00000270: 8795 f63d 5460 18be a02b a1bd 96c6 bc3d
00000280: b979 bbbe 5409 0dbe 304e 84bd e4d9 e03d
00000290: 71ca 0cbe 968c 41be eea2 91bc 8627 afbc
000002a0: a2ec 733e 9133 7e3d 0488 553d a2d7 09bf
000002b0: ce79 523e c9d9 bf3d ed55 3d3e 7435 703d
000002c0: 9e79 823d cec5 b0bd 9309 bebd e927 d63d
000002d0: c882 43bd 2ab9 3ebe fa08 b53d 6d67 01be
000002e0: 60c5 17be e605 3fbe 8baf 97be ac9f fd3c
000002f0: f26f dcbd 466e b7bd e138 6ebe 8e23 5b3e
00000300: 9c67 e1bc 44f1 76bd fdb2 db3d 1cab ae3d
00000310: 8f31 71bd f851 91ba d17f b53d 8ea5 d23d
00000320: 68dd 97bd 3255 23bf 18a6 cd3d 9435 98bc
00000330: 8f54 1b3e d7f5 8a3d 04e6 583d c59d 853c
00000340: 63ed abbe d997 c9bd aaed 153d 0046 3ebe
00000350: bf72 873e adb0 61bc 6ce0 0d3c 4de1 213d
00000360: 0386 2b3e 2b20 573e 697f efbd 8a11 86bd
00000370: 863d b2be 5251 883d 6ecd b4bc bc55 a43d
00000380: 92a9 4dbe 6185 e3bd 174f 643e 6167 0abf
00000390: 8c14 bebd b5d5 08be 4620 c2bd 2e8d fd3d
000003a0: 97f9 e2bc 58e3 8cbe 032d 143d 3376 db3d
000003b0: aaea 293e edfb d23d 2285 92be 3431 57bd
000003c0: cd0f 843b b3bb da3d f071 41bd 1370 e53d
000003d0: 1b02 f9bd d288 073d f8ae 0339 9309 593c
000003e0: 3cbe 05bf bed7 a9be b3d0 0ebf 667e e0bd
000003f0: 617f 863d 91d5 3fbd 6cb7 a1bb 0583 933d
0.016537951 0.039387334 0.010172958 -0.06928088 -0.0362041 -0.06397419 0.18005367 0.02491976
-0.069723405 0.17287844 0.023936165 0.07783233 0.048809186 0.1590771 0.035648797 0.15436392
-0.09056024 0.033774756 0.19715561 0.09560001 -0.029534431 0.18991484 0.08690231 0.12673308
-0.002031968 0.16020617 0.11520565 0.09765413 0.0018643687 0.23478088 0.20535547 0.22423302
0.07656929 0.062481586 0.21711867 0.09312433 0.03644464 0.10974783 0.074085824 0.22366786
0.103347786 0.15365963 0.012585012 -0.007533344 -0.058423553 -0.009912997 0.15153925 0.050311156
-0.08206639 -0.0049942685 0.066505484 -0.004368834 0.5660524 -0.018465435 0.075282186 0.060741413
0.046414703 -0.09572315 0.013339979 -0.08389423 0.20140013 0.086393245 -0.04386583 0.079338826
0.030895337 0.051735576 0.029828276 -0.00874093 0.09628249 -0.05125911 0.015838817 -0.110306054
-0.059327863 0.24410388 0.03611196 0.12432406 -0.022152424 0.08818214 0.008597142 0.110064104
0.17752954 -0.2768984 0.14283581 0.21657829 0.04614436 0.031438157 -0.13007522 0.09831941
0.058698308 0.012836109 -0.036477584 -0.33502185 0.14488465 0.09224209 0.0754199 -0.031070597
-0.036611035 0.09028038 0.16270006 0.0065520876 0.059028596 0.18642406 -0.03277628 0.11812024
-0.0026631358 0.20281757 -0.018604852 0.12018538 0.088677645 -0.09653978 0.13268 0.16544048
0.12884556 -0.052321345 0.05547648 0.16089106 -0.010236271 0.06338759 0.1330699 0.014832819
0.3791663 0.107900016 0.32675233 0.17346941 0.12621948 0.06836531 0.114440314 0.16509205
-0.17725377 0.0736001 0.11730765 0.11577718 0.029406125 0.1604646 -0.09394425 0.188739
-0.24463509 -0.35344428 -0.24264824 0.17207113 -0.0039157094 -0.25197124 0.08277408 0.12873475
-0.1459739 0.10345142 -0.105231225 0.13371176 -0.070721954 -0.030302653 0.22101943 -0.095466495
-0.35983083 -0.11590868 -0.18153071 -0.11643652 0.12040239 -0.14880496 -0.07869649 0.09217565
-0.36616305 -0.1377309 -0.064602256 0.10979059 -0.137491 -0.18901286 -0.017777886 -0.02138115
0.23820737 0.062060896 0.052131668 -0.53844655 0.20554277 0.09367711 0.1848981 0.058644727
0.06370853 -0.08631478 -0.0927917 0.10456831 -0.047732145 -0.18625322 0.08839603 -0.1263711
-0.14821386 -0.18654594 -0.29626116 0.030959927 -0.107635394 -0.0895658 -0.23263885 0.21400282
-0.027515225 -0.060288683 0.10727499 0.0852873 -0.058885153 -0.0011087051 0.0886227 0.10285483
-0.07415277 -0.6380187 0.100414455 -0.018580236 0.15168975 0.067851715 0.052953735 0.016310582
-0.3357955 -0.09843416 0.036603607 -0.1858139 0.26454732 -0.013775033 0.008659463 0.039521504
0.1675034 0.21008365 -0.116942234 -0.06546314 -0.34812564 0.066561356 -0.022070613 0.08024165
-0.20084217 -0.111094244 0.22295795 -0.54063994 -0.09281263 -0.13362773 -0.09478812 0.123804435
-0.027706904 -0.275172 0.03617574 0.10715904 0.16593423 0.10301957 -0.28617197 -0.052537158
0.004030204 0.10680332 -0.0472278 0.11203017 -0.12158605 0.033089466 0.00012558314 0.013246912
-0.522434 -0.3317241 -0.557872 -0.109616086 0.06567264 -0.046834532 -0.0049351957 0.07202724

net.2.bias f4 [128]
00000000: f645 873e 3375 56be 3c68 6bbe 13b5 033d
00000010: bc81 82be 541d 3cbe 8eb9 77bd 4cd8 4b3e
00000020: 9cf9 75be a227 88bd 3b57 0cbe 8517 293e
00000030: 14c4 3f3e a948 263d c4b0 5b3c 03b9 27bd
00000040: 2ef6 54be 519b 263d 3921 5bbd 8cfc e9bd
00000050: d9db bebd 8e71 353d c503 263e cc21 c7bd
00000060: 668e a7bd 41d9 173e e9bd 303e c7b8 5f3e
00000070: 4835 01be 4b0a ff3d 28fa 433e 1db4 8ebe
00000080: 9f7d a0bd 43a0 12be 8a1d e7bd bfc0 5ebe
00000090: c417 c4bd 78ec 68be e37e c3bd 0381 cbbd
000000a0: 2af7 113d 2747 aabe c4cc 433e d61c 5abd
000000b0: 05a2 02bd 8e2d 1fbe dde4 9fbe 240b c53c
000000c0: d684 cb3c 20c2 8ebe 7793 7bbe 666e 1b3e
000000d0: 58a9 2e3e f1df 1c3e 4291 173e 2bc6 263e
000000e0: e603 0c3e 7ccd 86be 2ed3 9ebe bf1d 9fbd
000000f0: d24b 70bd ffc2 2b3e 7a79 7abd 967a f4bd
00000100: 6295 5a3e 857e d13d 9cab 89be 7e42 0abe
00000110: de14 25be d01e 953d f76a 28bd 5a54 90be
00000120: 4797 1bbe 7879 3dbd dd4e 14be 712c 21bd
00000130: 40cc 58be a653 c9bd d1e2 0ebd cbd6 0e3e
00000140: 4c7e a7be 2fe2 8abe 24c6 41bd 1540 84bc
00000150: 722a 863d f417 06be 370b 86be c8c9 59be
00000160: 5753 e8bc 9a4e efbd 2635 68bd 5e3c 30be
00000170: d910 f9bd 38cb 93be 4d87 eebd 799b 16be
00000180: 4b2d aabe f638 43be 364e 83bd 1f23 94be
00000190: 92a9 65bd 0c5e 023e c61e 1ebe 08df 10be
000001a0: 1a62 463d bbd7 e3bd 3922 12be 2589 e73d
000001b0: d8b9 1ebe 2c73 453c 9008 4a3e 1109 4a3e
000001c0: 584c 96be b524 213e d2d5 c6bd 017e 0bbe
000001d0: 6738 e7bd 453b 143e 04e9 a93d cff6 f03d
000001e0: 60b4 87be 123e 3cbe f086 903d ec5b 2e3e
000001f0: 1a60 cf3d 9b7c 293e 1c60 a73d 85a3 a8be
0.26420563 -0.20943145 -0.22988981 0.032155108 -0.25489604 -0.18370563 -0.060479693 0.1990673
-0.24021 -0.06648184 -0.13705151 0.16512878 0.18727142 0.040596638 0.013408843 -0.040947925
-0.20797035 0.040675465 -0.05349848 -0.114251226 -0.09319276 0.044297747 0.16212375 -0.09723243
-0.08181457 0.1482897 0.17259945 0.2184783 -0.12617981 0.12453135 0.19138396 -0.2787179
-0.0783646 -0.14318947 -0.11284931 -0.21753214 -0.095748454 -0.22746456 -0.09545686 -0.099367164
0.035636105 -0.3325741 0.1912108 -0.053250156 -0.031892795 -0.15544721 -0.31229296 0.024053164
0.024843615 -0.2788248 -0.24567972 0.15178832 0.17056787 0.15319802 0.14801505 0.16286533
0.13673362 -0.26328647 -0.31020492 -0.077693455 -0.058666058 0.16773604 -0.061151005 -0.11937444
0.21346048 0.1022921 -0.2688874 -0.13501927 -0.16121241 0.07281268 -0.041117635 -0.28189355
-0.15194426 -0.04625842 -0.14483209 -0.039349023 -0.21171665 -0.09830408 -0.034884278 0.13949125
-0.32713544 -0.2712569 -0.047308102 -0.016143838 0.065510646 -0.13095075 -0.2618043 -0.2126838
-0.028360052 -0.11684914 -0.05669131 -0.17210528 -0.121614166 -0.2886598 -0.116469 -0.14707746
-0.3323768 -0.19064698 -0.06411402 -0.28933045 -0.056069918 0.12731189 -0.15441427 -0.1414758
0.0484334 -0.11125132 -0.14270867 0.11305455 -0.15500581 0.012051385 0.19729829 0.19730021
-0.2935512 0.15736659 -0.09708752 -0.13622285 -0.11290055 0.14475735 0.08296397 0.11765825
-0.26504803 -0.18383053 0.07056987 0.17027253 0.10125752 0.1655144 0.08172628 -0.32937256

net.4.weight f4 [4, 128]
00000000: 28ab 9a3d 2b53 b2be d9ad 4bbe 684c 323e
00000010: 458e 19be 113b 313e 0d36 ef3c 9bf8 4c3e
00000020: a8ee 79be ecb1 fd3a cf74 7cbe 3ff9 b6bc
00000030: 4823 983e 6997 103c c208 acbe 412c 243e
00000040: 30ee 25be 98fa b8be 611a 903e cefc 1bbd
00000050: 20e4 b1be 0086 bcbd 1d7b 933e ae08 c3be
00000060: a2ac ab3d b68e 7e3e 4acc 243d 3ac4 05bf
00000070: 8ece 63be cdce 163f 1fb3 f53d 9136 813d
00000080: 5eaf 5dbe 6f2b 413a 6f62 223e 89ba 8abe
00000090: a3bd a73e 90f6 52be 8870 30be 0366 2fbe
000000a0: e0ba e93c 33c6 1e3e f540 a7bd 87be 4a3e
000000b0: 92b1 0b3e ea62 39be 0f17 94be 525c e63d
000000c0: 4621 bd3d 6752 5fbd e7a5 993d 28d1 a13d
000000d0: 89bd 683d 70dd c13e 5101 843e 4f5f fb3e
000000e0: defd 983e e1b6 6d3c 8635 c9be f079 62be
000000f0: 8482 dc3e 951c c93e 1418 94be 5dff d33d
00000100: 8aca 983e 4bb6 aa3e de43 46be 3461 343d
00000110: 0b47 d63d 4fc1 253c ceda 803e 3991 8cbe
00000120: 2816 523d ef43 893d 288b 1fbe d67e 183d
00000130: c425 1cbe 9c04 87be 35e9 9b3e c489 c73e
00000140: a247 aebe f6aa 94be 6acd 9e3e 9d37 353e
00000150: bd69 713e ffb3 fe3c a0a4 173e 2e50 d0bd
00000160: 1473 c53d 48b1 02be 3f13 823e 09f7 95be
00000170: d1a7 3abd 497f b3be 39c2 90bd 2609 be3e
00000180: d2bf 33be eda8 8bbe 0d55 493c ec86 c9be
00000190: 9185 a73e 140e 95be 0309 f0bd d206 8abe
000001a0: 093f 06bd 07ca 6e3d 7f19 07be bcd8 d0be
000001b0: 68d2 eb3e c074 543c 4a37 bcbc 428a 493c
000001c0: 4ee3 d7be 344f 2dbd e74c ea3d 9df3 d53e
000001d0: ece3 213e 238f 853e ff7d 7c3e a067 183e
000001e0: d247 aabe e1db d5be e756 a83e 8244 213e
000001f0: e40f 033f 21f6 b23e 1ac2 95bc 69a3 85be
00000200: 7419 e83d eb2a c43e 103e d8bc d71c 923e
00000210: f95b 2abe 8b42 ffbe 50c2 47bb 4f4c 8f3e
00000220: 4d86 0ebe c5b1 fabc a3b6 c83e a737 103e
00000230: 5bbf 6d3e 8264 7dbe 72b1 a5be de21 a03e
00000240: 5421 733e 7c31 8ebe aa75 15be e1a5 63be
00000250: 5a22 8fbe 80cf eebe dbff 24bd c06e 56be
00000260: 0c16 3dbe e31e 883e 4ed6 913e b7c1 2d3f
00000270: 0a21 e2bd bb0b b63e 0fb4 7d3e 3952 713e
00000280: 1bb1 c43e c5cd 3fbe 77e8 393d 3af8 01be
00000290: 9bb1 503e 9bb2 79be 68cd 81be 0c96 86be
000002a0: 64bc 993e ee55 febe ccda 3d3e 4105 933e
000002b0: a6f5 893e 80bf 2bbe 416c c2be 228e 993e
000002c0: 277d a2bd 5cf3 1e3e a045 a2be 714b 163d
000002d0: 7bf3 3d3e 179d 713e dca7 623e 2908 973d
000002e0: 7d91 253d 99d0 6f3e 9d86 473e 507a 28be
000002f0: d6d4 4b3e 2e83 9f3e 4f8b 9cbd 6e4f 3d3e
00000300: a634 8c3d 44a9 b63d 8478 a1be b00c 9b3e
00000310: 14e0 193e bc69 0e3e 55f2 133e fe6c 8cbe
00000320: 57d1 6f3e 604a 4abb 82c2 d5be 16c7 873d
00000330: b632 85be e76c 973e fbab 963e 0a88 a93e
00000340: 9666 da3e 497b a03e dc3d be3e 190e c7bc
00000350: 6b6d ad3d 9583 603e e4b2 09bf 28a4 983e
00000360: 047f 02be 110c 94bd e343 37be bfee 3c3d
00000370: 2467 aabe 77b5 98bd a0fa 72be effb 693e
00000380: cfe6 16be e030 e13e 2b9c 4cbe bd7b a8bd
00000390: 900e 633e 2a4e 10bf 3e08 903e 545e 033e
000003a0: b97a ccbc 7adb 25be 7054 93be a527 eebe
000003b0: e5d2 603e 95e7 46bd dd4c 703e 7314 0e3e
000003c0: 3a83 453e baa5 9bbe 736b 9b3e 2679 cc3e
000003d0: 2979 9a3e 2e64 873e aee2 c63c c23b 81bd
000003e0: 755a c1bc 1cbb f8bd ee90 08ba 6f78 0bbd
000003f0: 546f f33e 149a ad3e be8b 943e 60dd a03e
0.07552177 -0.34829077 -0.19890536 0.17411959 -0.14995678 0.17307688 0.029200578 0.2001671
-0.24407446 0.0019355393 -0.24653934 -0.022335647 0.29714417 0.0088251615 -0.33600432 0.16032507
-0.16204143 -0.36128688 0.28145126 -0.03808289 -0.34744358 -0.09205246 0.28804865 -0.3809256
0.083825365 0.24859127 0.040233888 -0.5225254 -0.22246763 0.589093 0.11997055 0.06309236
-0.21648929 0.0007368838 0.15857862 -0.2709544 0.3276187 -0.20601869 -0.17230427 -0.17128758
0.028531492 0.15505295 -0.081666864 0.19799243 0.13641956 -0.18104139 -0.28923842 0.112480775
0.09234862 -0.054521944 0.075023465 0.079012215 0.05682138 0.37864256 0.25782254 0.49096152
0.29881185 0.014508934 -0.39298648 -0.22116828 0.43068326 0.3927962 -0.2892462 0.10351441
0.29842025 0.33342203 -0.19361827 0.044038013 0.10462769 0.010116889 0.25166935 -0.27454546
0.05129066 0.067024104 -0.15580428 0.037230335 -0.15248781 -0.26370704 0.3045136 0.38972294
-0.34039026 -0.29036683 0.31016093 0.17696996 0.23575492 0.031091688 0.14808893 -0.10171543
0.0964109 -0.1276294 0.2540531 -0.29290035 -0.0455702 -0.35058048 -0.07068295 0.37116355
-0.17553642 -0.27277318 0.012288344 -0.3936075 0.3271909 -0.29112303 -0.11720469 -0.26958328
-0.03277496 0.058298137 -0.1319332 -0.40790355 0.46058965 0.0129672885 -0.022975583 0.01230103
-0.42165607 -0.042311862 0.11440449 0.41787425 0.15809602 0.26085767 0.24657439 0.1488328
-0.3325792 -0.41769317 0.328788 0.1574879 0.5119612 0.34953406 -0.018281031 -0.26101235
0.1133298 0.38313994 -0.026396781 0.28537628 -0.16636647 -0.49855456 -0.003048081 0.27987906
-0.13918419 -0.030602345 0.3920184 0.1408373 0.23217528 -0.24745372 -0.32361943 0.3127584
0.23743182 -0.2777213 -0.14595667 -0.22231247 -0.27955896 -0.46642685 -0.040283065 -0.20940685
-0.18465441 0.26586065 0.28483814 0.6787371 -0.11041458 0.35555825 0.24775718 0.23566522
0.3841637 -0.18730839 0.04538771 -0.12692347 0.20380251 -0.24384539 -0.25352025 -0.26286352
0.30026543 -0.49674934 0.18540496 0.28714946 0.26945227 -0.1677227 -0.37973216 0.2999125
-0.07934027 0.15522522 -0.31693745 0.03669304 0.18549912 0.23595081 0.22134346 0.07374603
0.04042195 0.23419417 0.19484945 -0.16452909 0.19905409 0.3115477 -0.076437585 0.18487331
0.068459794 0.089190036 -0.3153726 0.30283117 0.15026885 0.13907522 0.14447911 -0.27426904
0.234197 -0.0030867085 -0.4174996 0.066297695 -0.26015252 0.29575273 0.29428086 0.33111602
0.42656392 0.3134406 0.3715657 -0.024298714 0.084681354 0.21925195 -0.5378859 0.2981274
-0.12743765 -0.07228864 -0.1789699 0.046126124 -0.33281815 -0.07456487 -0.23728418 0.22850011
-0.14736484 0.439826 -0.19981448 -0.08226726 0.22173524 -0.5636927 0.28131288 0.12828952
-0.024960862 -0.16197005 -0.28775358 -0.4651462 0.2195545 -0.048560698 0.23466821 0.13874988
0.1928834 -0.30399877 0.30355415 0.3993618 0.30170563 0.2644362 0.024278011 -0.06310226
-0.023602704 -0.12145063 -0.00052095845 -0.0340504 0.47545874 0.33906615 0.29012865 0.31418896

net.4.bias f4 [4]
00000000: 8644 413d 9df3 573d 52ed de3c 5f12 7c3d
0.04718449 0.052722562 0.027212773 0.061540958
