UFAL/dqn_single_agent.pth (torch, 95873 bytes, 6 tensors)

net.0.weight f4 [128, 47]
-0.248162 -0.2674396 0.14829257 0.11023786 0.1446166 0.21292002 0.24815068 0.078767926
-0.12841204 0.048925295 -0.10429466 -0.026873205 -0.15410283 -0.12129563 -0.44366163 0.029449414
0.21412878 0.103051126 0.057928026 -0.017464414 0.009918871 -0.1863654 -0.08486244 -0.11047147
0.12658702 0.007067343 0.10951409 0.04315465 -0.11293543 0.23840056 -0.022707326 0.18921675
-0.0074421624 0.077281825 0.020684643 0.15638457 -0.15679744 0.15010451 0.0038158745 0.1255123
-0.1988281 0.11355131 0.06767318 0.1769588 -0.022147287 0.026502516 0.17522044 -0.06355085
-0.1699837 0.13331856 0.181342 0.12795752 0.29687622 0.011198242 0.27983704 0.006929468
0.26059046 0.21366091 0.18547787 0.2438723 0.12630247 0.052790117 0.15728368 0.33375913
-0.03435441 0.46152213 0.15370046 0.4078923 0.11815814 0.38057756 0.14392032 0.15750168
0.2607926 0.17187598 0.23145348 0.13058531 0.19610135 0.13495518 -0.051958315 0.043825794
0.18821084 0.04906043 0.20461415 0.117589384 0.106340095 0.046519607 -0.08767461 0.022203276
0.15604709 -0.09184241 0.2781548 0.17185143 0.12084095 0.19642414 -0.14058577 -0.07332453
0.011966935 -0.108479664 0.07832498 0.11455829 0.1081476 0.13275151 0.13071151 0.08219305
0.060169417 0.038132466 -0.108326346 -5.4003016e-05 0.3226477 -0.0274525 0.06283601 -0.017332384
0.18893784 0.059589095 0.1040121 -0.105000004 0.105485804 -0.004389064 0.08248349 0.11856664
-0.040190708 -0.4142394 -0.18785217 0.18529406 0.042459242 0.13322805 0.029724179 0.10089085
-0.03685996 0.14659588 0.02670291 0.1523916 -0.10233289 0.13517547 -0.17422716 -0.07060387
-0.15572943 -0.084570356 -0.121453464 0.035158347 0.15874174 0.023669565 -0.15026945 0.11311385
0.18210149 0.08614806 0.12145111 0.14994054 0.19572802 0.2126411 -0.002878491 0.19871768
0.14009637 -0.0130590005 0.07779013 0.036986295 0.1268955 0.20781039 0.17873569 0.28522322
-0.07078323 0.40240481 -0.1364337 0.30986866 0.062123403 0.2343905 0.12749907 0.23193212
0.2426358 -0.25695157 -0.15629444 -0.2692236 -0.18284312 -0.023353666 0.18714385 -0.0348863
0.2926812 0.017052542 0.09277082 -0.13880001 -0.13300624 -0.05225483 0.21243635 -0.15972513
0.2461364 -0.052915584 0.13597642 0.2194299 0.11782271 0.015895873 -0.040761504 -0.06877605
0.084389985 -0.085719995 0.0008938686 -0.07332754 0.1713436 0.14330791 0.10581459 0.27492732
0.10426224 0.11895327 0.02051639 0.0012628087 -0.0585117 0.11093405 -0.009877567 0.12816425
-0.06579534 0.0396573 -0.08633597 -0.026955863 0.041199718 0.10785705 0.10422479 0.27219707
0.17236084 0.08335689 0.15769798 -0.0012077602 -0.06373057 0.15716888 0.010464616 0.07461775
0.13533038 0.078243844 -0.0018890202 -0.06287444 -0.15302661 -0.12606671 -0.12946105 0.055583812
-0.07720452 0.09949439 -0.30847824 0.073989876 0.2472572 -0.1810277 0.30521366 -0.20916417
0.21766876 -0.18636404 0.24504642 -0.008374264 0.29459694 0.21175155 0.06130159 0.18553987
0.040318478 0.05177867 0.09768169 0.36699438 -0.018979128 0.4570098 -0.02492307 0.3078442
00000000: 2e1e 7ebe d8ed 88be 02da 173e 63c4 e13d
00000010: 6016 143e b507 5a3e 361b 7e3e 1451 a13d
00000020: 727e 03be e465 483d 7098 d5bd 3225 dcbc
00000030: 22cd 1dbe d869 f8bd 9e27 e3be e63f f13c
00000040: 9344 5b3e 780c d33d f045 6d3d 8811 8fbc
00000050: c382 223c 92d6 3ebe 5ccc adbd de3e e2bd
00000060: 07a0 013e 2c95 e73b ec48 e03d eec2 303d
00000070: b14a e7bd 471f 743e b704 babc 09c2 413e
00000080: 62dd f3bb ef45 9e3d d772 a93c 4723 203e
00000090: 828f 20be ffb4 193e c013 7a3b 4c86 003e
000000a0: 9899 4bbe 978d e83d 3c98 8a3d b034 353e
000000b0: 3a6e b5bc ce1b d93c fd6c 333e f326 82bd
000000c0: 3510 2ebe a984 083e b8b1 393e 4c07 033e
000000d0: 2900 983e d578 373c cd46 8f3e 9710 e33b
000000e0: 1d6c 853e edc9 5a3e e9ed 3d3e a9b9 793e
000000f0: 6f55 013e 733a 583d f90e 213e 7ae2 aa3e
00000100: 36b7 0cbd a14c ec3e a763 1d3e 42d7 d03e
00000110: e5fc f13d 10db c23e d95f 133e 1f48 213e
00000120: 9c86 853e 4200 303e 2402 6d3e 28b8 053e
00000130: cbce 483e b131 0a3e 3ed2 54bd ad82 333d
00000140: 58ba 403e 97f3 483d 5f86 513e b4d2 f03d
00000150: d6c8 d93d 588b 3e3d bf8e b3bd a5e3 b53c
00000160: cfca 1f3e e017 bcbd 4e6a 8e3e d2f9 2f3e
00000170: 767b f73d 6923 493e b7f5 0fbe 2c2b 96bd
00000180: f710 443c 962a debd d968 a03d 899d ea3d
00000190: 7d7c dd3d 03f0 073e 3dd9 053e d454 a83d
000001a0: 3574 763d ca30 1c3d 34da ddbd 4c81 62b8
000001b0: 1432 a53e 11e4 e0bc 2ab0 803d a5fc 8dbc
000001c0: ec78 413e b213 743d 4c04 d53d 3e0a d7bd
000001d0: f108 d83d 23d2 8fbb 1bed a83d 11d3 f23d
000001e0: 039f 24bd 3017 d4be 525c 40be babd 3d3e
000001f0: bee9 2d3d ef6c 083e 1f80 f33c dd9f ce3d
00000200: 78fa 16bd 3b1d 163e 10c0 da3c 8b0c 1c3e
00000210: e893 d1bd 706b 0a3e 9b68 32be c398 90bd
00000220: 8977 1fbe 3933 adbd 98bc f8bd 3302 103d
00000230: 328d 223e ade6 c13c 3ce0 19be 3ca8 e73d
00000240: d078 3a3e 656e b03d 5cbb f83d 038a 193e
00000250: ed6c 483e 97be 593e 11a5 3cbb a67c 4b3e
00000260: 6c75 0f3e 6bf5 55bc 6f50 9f3d f17e 173d
00000270: e5f0 013e 3fcc 543e 7d06 373e c708 923e
00000280: ccf6 90bd 0108 ce3e 47b5 0bbe 1ba7 9e3e
00000290: 1c75 7e3d 1004 703e 1e8f 023e 9d7f 6d3e
000002a0: 8575 783e 288f 83be a60b 20be add7 89be
000002b0: 3a3b 3bbe 3050 bfbc a3a2 3f3e f0e4 0ebd
000002c0: 4fda 953e c6b1 8b3c a1fe bd3d 9721 0ebe
000002d0: ca32 08be 2909 56bd ea88 593e fc8e 23be
000002e0: 2e0b 7c3e 03be 58bd 673d 0b3e 3bb2 603e
000002f0: 084d f13d 1038 823c 89f5 26bd 75da 8cbd
00000300: a8d4 ac3d f78d afbd 8252 6a3a c02c 96bd
00000310: b274 2f3e 4fbf 123e 52b5 d83d 46c3 8c3e
00000320: 7187 d53d c69d f33d fd11 a83c d484 a53a
00000330: f7a9 6fbd 6431 e33d 85d5 21bc 7d3d 033e
00000340: b5bf 86bd b16f 223d ead0 b0bd 8bd2 dcbc
00000350: 09c1 283d 28e4 dc3d cf73 d53d 6a5d 8b3e
00000360: 5c7f 303e 04b7 aa3d 947b 213e b54d 9eba
00000370: 2c85 82bd e1f0 203e c873 2b3c 31d1 983d
00000380: 0c94 0a3e 4f3e a03d 0099 f7ba 50c4 80bd
00000390: 02b3 1cbe a217 01be 7091 04be daab 633d
000003a0: 671d 9ebd b7c3 cb3d dcf0 9dbe 0188 973d
000003b0: fe30 7d3e 535f 39be f744 9c3e 222f 56be
000003c0: 8fe4 5e3e 37d6 3ebe 73ed 7a3e 3634 09bc
000003d0: 69d5 963e 66d5 583e 6017 7b3d 2afe 3d3e
000003e0: fd24 253d df15 543d 560d c83d b0e6 bb3e
000003f0: 1e7a 9bbc 30fd e93e 772b ccbc c19d 9d3e

net.0.bias f4 [128]
0.123445116 0.28049248 -0.1811572 0.14459357 0.20830293 0.17774275 0.12373769 0.10577118
0.20459145 0.35820797 0.2985896 0.27811447 0.16457178 0.3488288 -0.16043022 -0.19759604
0.059952706 0.15458585 0.205552 0.19231282 0.10861549 0.1513452 0.38962302 0.35125375
-0.2821405 -0.15836897 -0.25774425 0.13380958 -0.03804294 0.08198323 0.11544036 0.17210494
0.12473167 0.24648242 0.19641627 0.062376246 0.067913845 0.27572376 0.20205201 0.281834
0.03683702 0.100726195 0.19926344 0.018541863 0.22650495 0.20868343 0.119081184 0.1919832
0.3149617 -0.052942853 -0.045381133 0.2088958 -0.020753918 0.2516381 0.07074553 0.3438219
-0.21937016 -0.124471016 0.3259753 0.0015373881 -0.13695183 0.06546392 0.19448614 0.42944932
-0.14196135 0.25099513 -0.053425223 -0.121393636 0.24100043 -0.22076164 -0.0544713 0.06564253
0.13161166 0.22413844 0.01643548 0.38791487 0.21698739 0.09141886 0.10308449 0.27107614
0.08892214 0.20281371 -0.20566764 -0.13107082 0.01260409 0.33822262 0.27948043 0.050190378
0.20769602 0.13411911 0.15561941 0.19820903 -0.13803299 0.11896501 0.10982294 0.090003885
0.30422497 -0.17794585 0.22503723 0.22475548 -0.18455994 0.01154188 0.19453812 0.29524747
-0.14008841 0.009247542 0.13161245 -0.085063845 -0.06897593 0.18027662 0.12398653 0.2183461
0.33848986 0.28010833 0.010498707 0.11280979 0.074099995 -0.15887871 0.017127767 0.29989928
0.27524623 -0.069211386 0.045013145 -0.16862667 0.33665478 0.16336681 -0.03452514 0.30888918
00000000: cbd0 fc3d b69c 8f3e 4681 39be 5610 143e
00000010: 5d4d 553e 3202 363e 306a fd3d 8f9e d83d
00000020: 6c80 513e 0967 b73e bce0 983e 0565 8e3e
00000030: 8185 283e b099 b23e d247 24be 9e56 4abe
00000040: f890 753d c14b 1e3e 397c 523e a7ed 443e
00000050: cc71 de3d 3cfa 1a3e ab7c c73e 88d7 b33e
00000060: b874 90be 7a2b 22be 0ef7 83be 6105 093e
00000070: ead2 1bbd d3e6 a73d ff6b ec3d 473c 303e
00000080: 5173 ff3d e365 7c3e 5921 493e 3c7e 7f3d
00000090: 6a16 8b3d aa2b 8d3e b9e6 4e3e 8c4c 903e
000000a0: 6ae2 163d 8949 ce3d b70b 4c3e 1be5 973c
000000b0: eaf0 673e 1cb1 553e d6e0 f33d 3e97 443e
000000c0: a942 a13e 9bda 58bd 91e1 39bd c8e8 553e
000000d0: 1f04 aabc b6d6 803e 08e3 903d 6d09 b03e
000000e0: 92a2 60be a9ea febd 3ce6 a63e 2f82 c93a
000000f0: 1a3d 0cbe f311 863d 6027 473e c8e0 db3e
00000100: 515e 11be 6f82 803e 68d4 5abd 3a9d f8bd
00000110: d1c8 763e 570f 62be 4c1d 5fbd 976f 863d
00000120: 35c5 063e 8c84 653e b3a3 863c c79c c63e
00000130: f131 5e3e d039 bb3d f61d d33d 7eca 8a3e
00000140: d01c b63d 66ae 4f3e 8a9a 52be 6e37 06be
00000150: 6381 4e3c 842b ad3e 0f18 8f3e 6d94 4d3d
00000160: 44ae 543e 8556 093e b25a 1f3e 4ff7 4a3e
00000170: 8558 0dbe eda3 f33d d9ea e03d f553 b83d
00000180: 60c3 9b3e 7037 36be 2970 663e 4d26 663e
00000190: 48fd 3cbe 271a 3d3c 0035 473e ad2a 973e
000001a0: 5673 0fbe 0183 173c 6ac5 063e f435 aebd
000001b0: 4143 8dbd 6f9a 383e a6ec fd3d 1f96 5f3e
000001c0: 8b4e ad3e 5c6a 8f3e c502 2c3c d208 e73d
000001d0: bdc1 973d 1ab1 22be 884f 8c3c 668c 993e
000001e0: 13ed 8c3e b3be 8dbd b45f 383d 78ac 2cbe
000001f0: 045e ac3e a149 273e 3c6a 0dbd b926 9e3e

net.2.weight f4 [128, 128]
-0.07594104 0.0458394 0.13708328 -0.04114775 -0.17171822 -0.19538517 -0.120019555 -0.065172225
-0.042665426 -0.019285204 -0.15607929 -0.07217866 -0.1068194 -0.12647401 -0.015244027 0.16251378
0.08005565 0.04239592 -0.09462132 0.07162628 -0.06582019 0.10681361 -0.022893488 -0.07483569
0.2110482 -0.021378009 -0.012414387 -0.19153823 0.073898226 0.18722117 0.12648481 -0.10567826
0.14307871 -0.15579508 0.055053886 0.057165682 -0.13806322 -0.15585883 0.0076269954 0.055017672
-0.049622744 0.0007551374 0.0219679 0.030501958 -0.08343401 -0.022209747 -0.044458117 0.10583955
-0.016109154 0.09434761 0.08738164 -0.0941343 -0.0020413923 -0.6022743 0.04149342 0.05009005
0.026348295 0.11905867 -0.054914154 -0.19567691 0.08707363 0.056983747 -0.06290616 -0.37339613
0.035090055 0.06388047 0.107573815 0.058583997 0.03742741 0.017626058 -0.034370482 0.01813909
0.105681784 0.03156517 0.17778176 -0.042997878 -0.11649837 -0.11285715 -0.07721422 0.016428148
0.087931335 -0.02532654 0.03592409 -0.025900213 -0.10174217 -0.055249706 -0.032171585 -0.040844295
0.074758254 0.05041598 -0.027191048 0.034833543 0.28269914 0.08534176 -0.044583 -0.24880828
-0.021281347 -0.1819147 -0.023150861 0.01915305 0.059651732 -0.2072622 0.014316417 -0.07407983
0.07977342 0.112982295 0.03919983 -0.20372891 0.09967845 0.07095105 0.0018220026 0.025873646
-0.16864927 -0.052831277 0.07204911 -0.01175367 -0.006415662 0.046761855 0.17902209 0.0016911118
-0.041169062 -0.01304595 -0.103406034 0.09176153 0.032633964 0.0724291 -0.14345545 -0.1053576
0.31695965 0.20158207 -0.06097945 0.19677232 0.19416845 0.265193 0.12364183 0.27038258
0.29205224 0.25879714 0.28964797 0.17697747 0.09033179 0.28228384 -0.18143913 0.052388273
0.22637564 0.025297146 0.26449654 0.1764646 0.13765132 0.12983878 0.20270225 0.09100319
-0.02991016 -0.15519683 -0.17072605 0.21670379 0.1242083 0.15654401 0.15791991 0.07609224
0.07532103 0.21701229 0.06569683 0.25556532 0.1784701 -0.051585704 0.10914084 0.1407895
0.23321232 0.10954183 0.20936902 0.19191523 0.1318837 0.080449745 0.26768222 0.20792568
0.22557352 0.055657543 0.10890673 0.18822157 0.011635088 0.29506075 0.13808788 0.24353366
-0.15890293 -0.14483576 0.09268099 0.19811602 0.071255825 0.22274078 0.24071907 0.40626633
0.16048835 0.24650545 0.16050455 -0.043077566 0.18562892 0.022061808 0.09534745 0.094215244
-0.0041894247 0.09015175 -0.07763557 0.19365686 0.032433353 0.27746236 0.54789615 0.19846186
0.012479606 0.10505333 -0.2729585 0.20425247 0.15018846 0.25520158 0.20851184 0.0846851
0.006097185 0.120812185 0.15184447 0.1655321 0.07371617 0.10542885 0.0756002 0.35397032
0.21662135 0.2611257 0.23096927 0.2290802 -0.089080416 0.19255042 0.182169 0.1260324
0.035754517 0.07072558 0.19381699 0.11588058 0.11646269 0.124988854 0.11231271 0.09053468
0.24116239 0.13152374 -0.09064896 0.02912547 0.14295192 0.0020523684 -0.17589417 0.2001228
0.0923009 -0.025140533 0.11507291 -0.12103271 0.065964274 0.29798415 0.2237891 0.23929809
00000000: fa86 9bbd 18c2 3b3d 8f5f 0c3e 8b8a 28bd
00000010: e7d6 2fbe 0d13 48be d0cc f5bd 0479 85bd
00000020: f1c1 2ebd 01fc 9dbc 40d3 1fbe 68d2 93bd
00000030: 21c4 dabd 6782 01be 15c2 79bc 036a 263e
00000040: 37f4 a33d 58a7 2d3d d3c8 c1bd cdb0 923d
00000050: bccc 86bd 18c1 da3d 208b bbbc 7443 99bd
00000060: 051d 583e ef20 afbc b765 4bbc 9922 44be
00000070: f457 973d e8b6 3f3e 3c85 013e d86d d8bd
00000080: 3a83 123e bf88 1fbe 2f80 613d 9026 6a3d
00000090: 7260 0dbe 7599 1fbe e0eb f93b 365a 613d
000000a0: 3841 4bbd 6af4 453a 07f6 b33c 3edf f93c
000000b0: 73df aabd 37f1 b5bc b719 36bd 68c2 d83d
000000c0: 58f7 83bc 5239 c13d 25f5 b23d 7cc9 c0bd
000000d0: e1c8 05bb a62e 1abf 01f5 293d 392b 4d3d
000000e0: 61d8 d73c 08d5 f33d aaed 60bd 875f 48be
000000f0: a953 b23d ca67 693d f2d4 80bd c72d bfbe
00000100: 97ba 0f3d c4d3 823d a94f dc3d c6f5 6f3d
00000110: 7c4d 193d 8664 903c 10c8 0cbd 6e98 943c
00000120: b16f d83d 7b4a 013d 6c0c 363e 8b1e 30bd
00000130: b396 eebd a621 e7bd 7d22 9ebd 5394 863c
00000140: 5815 b43d 9b79 cfbc 2325 133d af2c d4bc
00000150: 335e d0bd 844d 62bd 5ac6 03bd 594c 27bd
00000160: db1a 993d fd80 4e3d c3bf debc 9ead 0e3d
00000170: f1bd 903e a9c7 ae3d aa9c 36bd 99c7 7ebe
00000180: 3856 aebc d947 3abe e0a6 bdbc dbe6 9c3c
00000190: 6055 743d 8b3c 54be 688f 6a3c 2ab7 97bd
000001a0: 3f60 a33d 4363 e73d 0090 203d 509e 50be
000001b0: 3724 cc3d c94e 913d 43d0 ee3a f8f4 d33c
000001c0: 65b2 2cbe 9c65 58bd 7c8e 933d 7792 40bc
000001d0: 793a d2bb 5c89 3f3d 9151 373e 4ca8 dd3a
000001e0: e4a0 28bd aebe 55bc 8bc6 d3bd 78ed bb3d
000001f0: 31ab 053d b555 943d fce5 12be bac5 d7bd
00000200: 8948 a23e 886b 4e3e 96c5 79bd af7e 493e
00000210: 18d4 463e 60c7 873e ee37 fd3d 966f 8a3e
00000220: df87 953e 0f81 843e bd4c 943e 9539 353e
00000230: e0ff b83d 8287 903e 2ecb 39be 1695 563d
00000240: 04cf 673e f63b cf3c 176c 873e 23b3 343e
00000250: 78f4 0c3e 75f4 043e 2e91 4f3e e15f ba3d
00000260: 2706 f5bc ebeb 1ebe cfd2 2ebe 99e7 5d3e
00000270: ec60 fe3d 134d 203e c2b5 213e 40d6 9b3d
00000280: ea41 9a3d 7838 5e3e 0f8c 863d 75d9 823e
00000290: dec0 363e 884b 53bd 3c85 df3d 1f2b 103e
000002a0: 36cf 6e3e 7857 e03d d564 563e 6d85 443e
000002b0: 850c 073e d6c2 a43d a50d 893e 78ea 543e
000002c0: bffc 663e 2af9 633d 7e0a df3d 28bd 403e
000002d0: 19a1 3e3c 3412 973e e966 0d3e e360 793e
000002e0: 73b7 22be d34f 14be 88cf bd3d edde 4a3e
000002f0: 93ee 913d 2916 643e 0f7f 763e 2402 d03e
00000300: 0f57 243e ed6b 7c3e 4e5b 243e 1a72 30bd
00000310: 8215 3e3e f7ba b43c 8645 c33d ecf3 c03d
00000320: 7147 89bb 7ba1 b83d 66ff 9ebd fc4d 463e
00000330: d6d8 043d 8c0f 8e3e ec42 0c3f 9639 4b3e
00000340: 4377 4c3c 3326 d73d 37c1 8bbe 8f27 513e
00000350: 01cb 193e c8a9 823e 2184 553e 626f ad3d
00000360: e5ca c73b 616c f73d 1e7d 1b3e 3f81 293e
00000370: 81f8 963d 15eb d73d 47d4 9a3d 993b b53e
00000380: fdd1 5d3e 45b2 853e 3583 6c3e 0094 6a3e
00000390: cb6f b6bd f02b 453e 838a 3a3e a30e 013e
000003a0: 5473 123d 93d8 903d f677 463e cc52 ed3d
000003b0: fe83 ee3d 28fa ff3d 3504 e63d 3f6a b93d
000003c0: 46f3 763e 29ae 063e 29a6 b9bd 8a98 ee3c
000003d0: fd61 123e 0781 063b 9a1d 34be feec 4c3e
000003e0: 4108 bd3d 85f3 cdbc 59ab eb3d ffdf f7bd
000003f0: 4718 873d 6191 983e f828 653e 8f0a 753e

net.2.bias f4 [128]
-0.08503169 0.088367164 0.040354613 0.051497657 -0.14214128 0.028486319 -0.036996003 -0.059314374
0.08489386 -0.11030696 0.0007541904 0.17430204 0.14946237 -0.16475345 0.100022264 0.19562261
-0.0073143975 -0.06907141 0.09465154 0.08993141 -0.08538441 0.21343319 0.09913785 -0.14524439
0.18665668 -0.042799372 0.004721366 -0.05562385 -0.07399094 -0.056760576 0.112205625 0.009356309
0.011380991 0.14975561 0.17727193 0.15571113 0.10739725 0.17866963 0.26986077 0.11176913
0.13762641 -0.12027562 0.022742584 0.03454894 0.120945685 0.20002553 -0.073076904 0.1143142
0.1062252 0.033659093 0.15899391 -0.06666172 -0.13488571 -0.12406493 0.14728327 -0.081208006
0.122586675 0.03902976 0.10103702 -0.0385094 0.07842101 -0.049152873 0.13128947 0.111106366
-0.11800585 0.052307047 0.071073085 0.06808021 0.21884309 0.13984828 0.071600184 -0.067144714
-0.14190218 0.01646202 -0.058885604 0.04608882 0.14903443 -0.050539143 -0.25282717 0.01641786
0.15107542 0.099165484 0.08713803 -0.116730236 -0.047495008 0.07382057 0.06499303 0.09154289
0.18080227 -0.10296299 0.16616714 -0.0711373 -0.0033802402 -0.14966688 -0.06882409 -0.19764039
0.24864168 0.16259365 -0.07128382 -0.031734876 -0.03074729 -0.045448553 0.06108047 -0.04919446
0.119227424 -0.010007905 0.20576753 0.21234517 -0.124189705 -0.042591866 0.0355293 0.29594824
-0.062034328 0.16812173 0.13692923 -0.0134198535 0.03148812 0.22413671 -0.019876115 0.006708049
0.1039941 -0.19894704 0.15876603 -0.07177896 -0.01618101 0.08805678 0.05002983 -0.031044962
00000000: 1825 aebd d8f9 b43d e14a 253d 35ef 523d
00000010: 7c8d 11be 245c e93c 1f89 17bd a1f3 72bd
00000020: d5dc ad3d 9ee8 e1bd dcb4 453a 3c7c 323e
00000030: aa0c 193e 21b5 28be 79d8 cc3d 4b51 483e
00000040: 9dad efbb 5075 8dbd abd8 c13d f62d b83d
00000050: 06de aebd 3b8e 5a3e c908 cb3d f2ba 14be
00000060: ee22 3f3e 654e 2fbd b0b5 9a3b d6d5 63bd
00000070: 9088 97bd c77d 68bd 10cc e53d 344b 193c
00000080: 5677 3a3c 8959 193e c686 353e bd72 1f3e
00000090: 17f3 db3d 2cf5 363e 312b 8a3e 37e7 e43d
000000a0: f0ed 0c3e 1053 f6bd a84e ba3c 3083 0d3d
000000b0: 5fb2 f73d 7ed3 4c3e 58a9 95bd 901d ea3d
000000c0: 998c d93d 1ede 093d 4dcf 223e f185 88bd
000000d0: 7b1f 0abe c115 febd 6dd1 163e 6250 a6bd
000000e0: b90e fb3d abdd 1f3d 7fec ce3d 08bc 1dbd
000000f0: 329b a03d 8654 49bd bf70 063e bc8b e33d
00000100: 0dad f1bd ea3f 563d c48e 913d a36d 8b3d
00000110: 6718 603e 6334 0f3e 1ea3 923d 2b83 89bd
00000120: ce4e 11be 5cdb 863c 0832 71bd a1c7 3c3d
00000130: 7b9c 183e 2202 4fbd 9072 81be bf7e 863c
00000140: 84b3 1a3e 4617 cb3d 6c75 b23d 4310 efbd
00000150: 208a 42bd 3d2f 973d 111b 853d d77a bb3d
00000160: 3b24 393e 43de d2bd b827 2a3e 6fb0 91bd
00000170: 0587 5dbb 4642 19be a5f3 8cbd 3e62 4abe
00000180: ed9b 7e3e f37e 263e 40fd 91bd 6efc 01bd
00000190: bee1 fbbc 4328 3abd 842f 7a3d 2180 49bd
000001a0: 822d f43d 32f8 23bc b9b4 523e 0371 593e
000001b0: 2c57 febd cf74 2ebd 2c87 113d 8786 973e
000001c0: b517 7ebd 1a28 2c3e 2d37 0c3e f2de 5bbc
000001d0: b0f9 003d 1884 653e 3cd3 a2bc 32cf db3b
000001e0: dcfa d43d c6b8 4bbe 9093 223e d900 93bd
000001f0: 0a8e 84bc 1d57 b43d 14ec 4c3d 0152 febc

net.4.weight f4 [4, 128]
-0.24554993 0.20605767 -0.03209599 0.11453988 0.11207568 0.043489918 -0.057851702 -0.0017282773
0.06785575 -0.25636673 0.041368246 -0.0335696 0.26353037 0.038607508 0.13691726 0.08144671
0.46056572 -0.03559958 0.010280441 -0.028497765 0.080408104 0.14652936 0.24842767 -0.049391426
0.25924096 -0.17431396 0.019177943 -0.32646444 -0.19604711 0.0010333061 0.013276127 -0.03385038
0.069554016 0.2486599 0.3443932 0.22624123 0.1847366 0.16069973 0.30251017 -0.028019775
0.3044686 -0.04784198 0.040530495 0.06113219 0.2169791 0.2544194 0.03931482 0.128836
0.21399339 -0.08989659 0.08481079 -0.06524929 0.077553265 -0.0058878297 0.051970676 -0.3855917
0.279847 -0.013069708 0.056082405 -0.2706234 0.066160135 0.095460124 0.18406169 0.14595506
0.11770326 -0.026522275 0.22423273 0.13866915 0.031193476 -0.07394597 -0.13077524 -0.053594742
-0.03705613 0.12399813 0.065653 0.20592521 0.32303828 -0.2278141 -0.13806778 0.06375265
0.27232477 -0.02909979 0.25437492 -0.08664317 0.037862644 0.1157682 0.008584511 0.034958646
0.2477698 -0.15500431 -0.035573322 0.07219437 -0.028468078 -0.22106671 -0.29363337 0.031807587
0.089298695 -0.37236136 -0.14830022 0.36698967 0.14786796 0.09033885 0.14337254 -0.10422091
-0.12988035 0.0376736 0.049019568 0.20551984 0.1475881 0.06471319 0.014444833 0.26085094
-0.36525398 0.31074408 0.24044435 0.18856983 0.020081542 -0.015249522 -0.2560398 -0.063026465
0.22265649 -0.32530683 0.19614789 -0.069390096 -0.16217926 -0.014619559 0.0029247373 0.21078503
-0.08767194 0.024260925 0.13664758 0.28811213 -0.16755061 0.21236123 -0.08000075 -0.18336907
0.24453692 0.20224813 0.19313778 0.12036272 0.16867217 0.13901961 0.15857333 0.29573664
-0.11649002 -0.058590524 0.011752447 0.010279518 0.081333734 0.21231085 0.23647653 -0.23697197
0.28420582 -0.026095366 -0.07524895 -0.054095984 0.050814502 -0.0149478065 0.18843263 0.039506204
-0.0024509248 0.05992028 0.19108751 0.1596636 -0.06144345 0.18588503 0.07234722 0.06643098
0.2632727 -0.3161408 0.04869673 -0.10424265 -0.05573712 0.17828505 -0.053251203 0.060104527
0.05291786 -0.10529768 -0.06662999 -0.021994382 0.22179985 0.20058092 0.18047021 0.053927522
0.13799217 0.2369753 -0.03127448 -0.0917704 0.048649907 -0.31108347 -0.0069746575 0.24406686
0.18054175 0.06861874 0.3352355 0.14934264 0.22416237 0.053764395 -0.10787394 0.021333449
-0.1864071 0.12536757 0.18753786 0.1755229 0.047565598 -0.14434373 0.29444262 -0.083664194
-0.04591316 0.20704283 0.1636906 0.04941762 -0.20395519 0.25729033 -0.046982042 0.17567374
0.25665846 -0.18504007 0.12081561 -0.0132597815 -0.15418783 0.178173 -0.10016051 0.27337393
0.21956007 0.40115693 -0.18509117 -0.2015448 0.2164924 -0.34297237 0.09019421 -0.22831118
-0.22844768 -0.1711617 0.0049878373 0.30328795 0.18751729 0.07068875 -0.04771101 0.18907173
-0.09578804 0.13295358 0.049178217 0.35847497 0.20943262 0.1645992 -0.14358367 -0.1862259
-0.055858728 0.17721693 0.26190227 0.07382866 -0.16852634 0.25725588 -0.063776456 0.2086998
00000000: 7171 7bbe c800 533e 1677 03bd e293 ea3d
00000010: ef87 e53d 7c22 323d e8f5 6cbd 5d87 e2ba
00000020: f5f7 8a3d 8042 83be c071 293d 4780 09bd
00000030: 74ed 863e e822 1e3d 0a34 0c3e 88cd a63d
00000040: 45cf eb3e ddd0 11bd 4b6f 283c 2574 e9bc
00000050: 01ad a43d cb0b 163e d363 7e3e aa4e 4abd
00000060: 3bbb 843e 5c7f 32be 101b 9d3c 5926 a7be
00000070: 93c0 48be 0070 873a 1d84 593c b2a6 0abd
00000080: 5672 8e3d b3a0 7e3e 4e54 b03e c8ab 673e
00000090: 972b 3d3e 788e 243e 9de2 9a3e ba89 e5bc
000000a0: 4fe3 9b3e f4f5 43bd 4e03 263d bf65 7a3d
000000b0: c52f 5e3e 4243 823e 9408 213d 96ed 033e
000000c0: 1521 5b3e b41b b8bd 48b1 ad3d 6ba1 85bd
000000d0: 3fd4 9e3d b2ee c0bb 34df 543d 466c c5be
000000e0: 1b48 8f3e 5422 56bc aab6 653d 268f 8abe
000000f0: f77e 873d 9980 c33d ab7a 3c3e 3e75 153e
00000100: 680e f13d 3e45 d9bc 449d 653e 49ff 0d3e
00000110: 7689 ff3c fc70 97bd f2e9 05be 2986 5bbd
00000120: 2bc8 17bd bbf2 fd3d 1475 863d 0fde 523e
00000130: 4665 a53e 1948 69be a461 0dbe c090 823d
00000140: 276e 8b3e af62 eebc 6e3d 823e f971 b1bd
00000150: dc15 1b3d e117 ed3d 0ca6 0c3c cc30 0f3d
00000160: 5eb7 7d3e 73b9 1ebe 55b5 11bd a4da 933d
00000170: e335 e9bc 505f 62be 1d57 96be ac48 023d
00000180: 3ce2 b63d 26a6 bebe 03dc 17be 12e6 bb3e
00000190: b36a 173e 9303 b93d 40d0 123e c671 d5bd
000001a0: 5bff 04be a24f 1a3d bec8 483d cb73 523e
000001b0: 5621 173e 5988 843d 05aa 6c3c 418e 853e
000001c0: 9202 bbbe d919 9f3e 0b37 763e 7318 413e
000001d0: 0c82 a43c 22d9 79bc a617 83be 0514 81bd
000001e0: 1000 643e 9e8e a6be feda 483e 651c 8ebd
000001f0: 5212 26be e086 6fbc f3ac 3f3b 08d8 573e
00000200: 598d b3bd d9be c63c 58ed 0b3e 6f83 933e
00000210: 6392 2bbe 3975 593e 6fd7 a3bd 1ac5 3bbe
00000220: e367 7a3e 221a 4f3e e9c5 453e bb80 f63d
00000230: 66b8 2c3e 285b 0e3e 0c61 223e cb6a 973e
00000240: 5292 eebd 9efc 6fbd 568d 403c 6c6b 283c
00000250: 4d92 a63d 0468 593e e726 723e c8a8 72be
00000260: 6d83 913e f3c5 d5bc 1f1c 9abd c093 5dbd
00000270: de22 503d a5e7 74bc 7cf4 403e 42d1 213d
00000280: b29f 20bb f86e 753d 72ac 433e db7e 233e
00000290: 21ac 7bbd a558 3e3e c72a 943d f70c 883d
000002a0: aecb 863e 35dd a1be 3976 473d 2c7d d5bd
000002b0: 9b4c 64bd 5b90 363e ef1d 5abd 2a30 763d
000002c0: 66c0 583d 4fa6 d7bd 4e75 88bd 902d b4bc
000002d0: 801f 633e 1665 4d3e 2fcd 383e 1be3 5c3d
000002e0: d24d 0d3e a7a9 723e ab19 00bd 1ff2 bbbd
000002f0: 2045 473d 5546 9fbe ab8b e4bb aaec 793e
00000300: f0df 383e fb87 8c3d fda3 ab3e 47ed 183e
00000310: d28a 653e 0e38 5c3d 03ed dcbd 7cc3 ae3c
00000320: 81e1 3ebe 5b60 003e ed09 403e 46bc 333e
00000330: 25d4 423d d8ce 13be 2fc1 963e 2258 abbd
00000340: 700f 3cbd 0903 543e 829e 273e 216a 4a3d
00000350: a1d9 50be 8fbb 833e 3e70 40bd d1e3 333e
00000360: bd68 833e 257b 3dbe 2d6e f73d 8e3f 59bc
00000370: 6ae3 1dbe fc72 363e f420 cdbd abf7 8b3e
00000380: 5bd4 603e 7164 cd3e 8a88 3dbe c361 4ebe
00000390: 2fb0 5d3e 139a afbe beb7 b83d 68ca 69be
000003a0: 30ee 69be 0345 2fbe 0371 a33b 8f48 9b3e
000003b0: 8804 403e 43c5 903d 9f6c 43bd 059c 413e
000003c0: 852c c4bd fc24 083e 196f 493d 088a b73e
000003d0: 8175 563e b18c 283e 9907 13be 01b2 3ebe
000003e0: 1fcc 64bd 5b78 353e 0e18 863e 7b33 973d
000003f0: 2b92 2cbe 0bb7 833e 3b9d 82bd 66b5 553e

net.4.bias f4 [4]
0.044979513 0.12460728 0.1378172 0.021792913
00000000: 703c 383d 1a32 ff3d f41f 0d3e 0d87 b23c
