UFAL/dqn_single_agent copy.pth (torch, 95873 bytes, 6 tensors)

net.0.weight f4 [128, 47]
-0.037238475 -0.010294045 -0.0021135018 0.2425341 -0.14718544 0.31831583 -0.14910348 0.24272038
0.100583844 0.11537272 0.07098479 0.07203259 0.13107109 0.22037247 0.050920982 -0.014975566
0.21055706 0.18519934 0.1700463 0.16513464 0.25843513 0.08053868 0.30459675 -0.06592232
0.39394513 0.18847334 0.10182739 -0.035258137 -0.15000184 -0.11232313 -0.038991664 0.051801763
0.14046162 0.22006689 0.10116755 0.27122673 0.05260957 0.0697932 0.08758645 -0.09606181
-0.13271798 0.22199376 0.012535997 0.24860197 -0.103710696 0.19875991 0.26296803 -0.018559705
0.020540701 -0.038366005 0.30343026 -0.033580802 0.1401327 0.19933139 0.21415073 0.17691964
0.15202804 0.11895967 0.034271855 0.24528679 0.26324126 -0.23028566 0.19300835 0.0692437
-0.033120546 0.2620257 -0.040948566 0.0658365 0.09347229 0.2810372 0.019299261 0.2977524
0.09889329 0.16852638 -0.18068448 0.12825379 0.38972807 0.022052804 0.33168334 0.012122534
0.1683643 0.004395808 0.014843298 0.11697224 -0.030327488 -0.043060645 -0.1382034 -0.05777003
0.0062433598 0.06113304 -0.028295744 0.07577841 -0.1383302 0.18722211 0.09464814 -0.12157924
0.1696055 -0.19977206 -0.021052869 -0.33350134 0.24044241 -0.29409295 -0.05235466 -0.24069107
-0.079759434 -0.21846929 -0.18493946 -0.25697982 -0.04596834 0.01596902 -0.2840872 0.019652296
-0.2613292 -0.08170677 -0.14195473 -0.03719285 -0.27846545 0.0055449805 -0.33607078 0.1517482
-0.16749445 0.03013047 -0.037404425 -0.17431723 0.1486423 -0.1825454 0.19193187 -0.09334745
-0.0029592263 -0.05854771 -0.022467548 -0.0024069059 0.04239592 0.07341662 0.3029015 0.11450177
0.019653294 -0.01635353 0.07520912 -0.02090855 -0.2512512 -0.013619067 0.22077203 0.11001573
0.13452294 0.13670884 0.18696651 0.0038023293 0.24609934 0.15444902 -0.09768625 0.00793272
0.036480647 0.12699853 -0.024731189 -0.37142658 0.115481995 0.022734618 -0.027768543 0.22057006
0.13520215 0.22944072 0.12677996 0.11224977 -0.05419045 0.22070459 0.09246311 0.12176465
-0.12899205 0.11767781 -0.07612451 0.023049654 0.029849006 0.05496713 0.18160164 -0.06764734
0.25422204 0.038561698 0.3263374 0.14410827 -0.11267063 0.053302694 0.12650132 -0.11768446
0.1766353 -0.027166413 0.2511437 -0.3105392 -0.12907192 -0.035817273 -0.11261286 0.2733437
-0.13761413 0.10366603 0.06760979 0.13422297 0.038013052 0.06394118 -0.042985827 -0.04123887
0.01255916 0.020607216 -0.019759862 0.111414514 0.24297348 0.11683428 0.37119296 0.1715666
0.37465972 0.11707574 0.11850037 -0.02560904 0.15856111 0.1284931 0.19791931 -0.054306187
-0.22972666 -0.14117561 -0.122544944 -0.024144381 -0.016996495 0.11116625 -0.028501041 0.17181203
-0.044965696 0.066907085 0.117661 -0.02363643 0.021495722 0.019678839 -0.14683785 0.023829242
-0.07498594 -0.023416834 0.3471438 -0.034892213 -0.08496293 -0.016940927 0.36350077 0.09368203
0.23624115 -0.07149844 0.31694508 0.042102493 0.2733362 0.061892867 0.26319572 0.0982127
0.18743925 -0.12699579 0.040045623 0.07969705 0.18629403 0.35836983 -0.03239866 0.17520174
00000000: 5f87 18bd 5ba8 28bc ad82 0abb dc5a 783e
00000010: c8b7 16be 4bfa a23e 95ae 18be b18b 783e
00000020: e7fe cd3d 8848 ec3d 7960 913d d385 933d
00000030: 8037 063e 52a9 613e 8592 503d 145c 75bc
00000040: 459c 573e e5a4 3d3e 9e20 2e3e 0e19 293e
00000050: 9c51 843e 77f1 a43d 1bf4 9b3e 4802 87bd
00000060: 2db3 c93e 28ff 403e e18a d03d d66a 10bd
00000070: 159a 19be ab09 e6bd b9b5 1fbd 162e 543d
00000080: 2cd5 0f3e 3759 613e ef30 cf3d 3bde 8a3e
00000090: 227d 573d bdef 8e3d 8660 b33d 0ebc c4bd
000000a0: 39e7 07be 5552 633e c863 4d3c 8491 7e3e
000000b0: 4666 d4bd b887 4b3e bfa3 863e 860a 98bc
000000c0: f944 a83c ac25 1dbd 365b 9b3e 068c 09bd
000000d0: f27e 0f3e 871d 4c3e 544a 5b3e 6c2a 353e
000000e0: 3dad 1b3e 21a1 f33d a560 0c3d 762c 7b3e
000000f0: 8fc7 863e 01d0 6bbe fba3 453e a4cf 8d3d
00000100: 69a9 07bd 3c28 863e afb9 27bd 49d5 863d
00000110: 666e bf3d 1ce4 8f3e 7c19 9e3c 0173 983e
00000120: 9188 ca3d 2e92 2c3e 5a05 39be f654 033e
00000130: 708a c73e 15a8 b43c 66d2 a93e 989d 463c
00000140: b167 2c3e b60a 903b 4e31 733c 248f ef3d
00000150: 5a71 f8bc 5c60 30bd 3185 0dbe 44a0 6cbd
00000160: 1995 cc3b a366 7a3d 7acc e7bc b631 9b3d
00000170: 6fa6 0dbe 27b7 3f3e e2d6 c13d 89fe f8bd
00000180: 10ad 2d3e 0c91 4cbe 1177 acbc b0c0 aabe
00000190: 8936 763e 5a93 96be d771 56bd b877 76be
000001a0: ea58 a3bd 6ab6 5fbe c560 3dbe dc92 83be
000001b0: 4c49 3cbd 76d1 823c e173 91be dafd a03c
000001c0: f1cc 85be e155 a7bd 955c 11be 8857 18bd
000001d0: 0693 8ebe abb2 b53b 7811 acbe e163 1b3e
000001e0: aa83 2bbe 2dd4 f63c 6235 19bd 3780 32be
000001f0: b035 183e 2eed 3abe ca89 443e f32c bfbd
00000200: 94ef 41bb b9cf 6fbd dd0d b8bc 2ebd 1dbb
00000210: 58a7 2d3d 745b 963d e815 9b3e e77f ea3d
00000220: f2ff a03c d7f7 85bc 3d07 9a3d 6848 abbc
00000230: ffa3 80be 8222 5fbc 1012 623e ed4f e13d
00000240: 62c0 093e 67fd 0b3e 2674 3f3e 8030 793b
00000250: 7701 7c3e e227 1e3e bb0f c8bd 3df8 013c
00000260: bb6c 153d e70b 023e 1099 cabc a02b bebe
00000270: d381 ec3d f33d ba3c db7a e3bc 1edd 613e
00000280: 6f72 0a3e 82f2 6a3e 9bd2 013e 35e3 e53d
00000290: cef6 5dbd 6200 623e 4d5d bd3d bf5f f93d
000002a0: 7e16 04be 1001 f13d 2be7 9bbd a1d2 bc3c
000002b0: e785 f43c 3725 613d c8f5 393e b08a 8abd
000002c0: 6429 823e dff2 1d3d b215 a73e 1e91 133e
000002d0: dcbf e6bd ed53 5a3d 9089 013e 8d04 f1bd
000002e0: e2df 343e 198c debc e895 803e fefe 9ebe
000002f0: 6e2b 04be 22b5 12bd 92a1 e6bd b5f3 8b3e
00000300: b8ea 0cbe db4e d43d 0077 8a3d bf71 093e
00000310: 93b3 1b3d 98f3 823d e811 30bd 17ea 28bd
00000320: efc4 4d3c 77d0 a83c 6fdf a1bc 4b2d e43d
00000330: 0ace 783e d046 ef3d 010d be3e 28af 2f3e
00000340: 66d3 bf3e 68c5 ef3d 52b0 f23d 0dca d1bc
00000350: d85d 223e b293 033e 5cab 4a3e 2a70 5ebd
00000360: 773d 6bbe 5790 10be d8f8 fabd 70ca c5bc
00000370: 3c3c 8bbc 22ab e33d 047b e9bc 7eef 2f3e
00000380: f32d 38bd 9506 893d 40f8 f03d 30a1 c1bc
00000390: cc17 b03c 8435 a13c a95c 16be 8b35 c33c
000003a0: 3a92 99bd a9d4 bfbc d5bc b13e 23eb 0ebd
000003b0: 0b01 aebd b3c7 8abc c61c ba3e 5ddc bf3d
000003c0: 33e9 713e c66d 92bd a046 a23e aa73 2c3d
000003d0: b9f2 8b3e 6083 7d3d 97c1 863e bd23 c93d
000003e0: 13f0 3f3e 2f0b 02be e106 243d 3538 a33d
000003f0: ddc3 3e3e 407c b73e 75b4 04bd 1668 333e

net.0.bias f4 [128]
0.1275489 0.11403738 0.013285948 0.34345412 0.23365414 0.23783307 0.22111307 0.28044173
0.31440887 0.10338149 0.17893006 -0.1652684 0.010545287 0.21224965 -0.27898937 0.31652153
-0.12617454 0.12423137 0.0084730005 -0.12866606 0.10630734 0.14543101 0.12279943 0.005980492
0.32027966 0.26137692 -0.057124104 0.23140189 0.102646016 0.19553372 0.20148696 0.33573177
0.24105082 0.27934235 0.026548281 -0.193971 -0.01840608 -0.12726131 0.2410563 0.11063888
0.25958437 -0.11163056 -0.045363497 0.18319675 0.10993476 -0.063358665 0.06994935 0.04384898
0.1695098 -0.08927371 -0.19995928 0.3334525 0.08006999 0.0265653 -0.23334481 0.21351409
0.36708775 -0.073720545 -0.10264672 0.25552678 0.06492345 0.24476913 -0.017641596 -0.12994362
0.15759471 0.024682965 0.055932265 0.12952271 -0.026501263 0.06889204 0.037302088 0.13861243
0.26321763 -0.06585341 0.20575544 -0.17565146 0.22158238 0.268068 0.23312983 -0.24693805
0.037221085 0.04385963 0.37178558 0.16176729 0.20285009 -0.17407836 0.26263 0.28283373
-0.11570099 0.12996691 -0.12897448 0.20482832 -0.036162186 0.076416336 0.06364686 0.21097574
0.0074955355 0.18029861 0.09064746 0.2616608 0.30155817 0.06883092 0.06715679 0.035125766
0.20126246 0.33329815 0.27937326 0.28440332 -0.037819646 -0.083815254 -0.116565496 0.29404292
0.2504042 0.33220163 -0.07383609 0.21292844 0.21602076 0.11262168 0.16130705 0.3450451
0.0915355 -0.004894063 0.27868146 0.402007 -0.04787972 -0.045394756 -0.107485026 0.06776414
00000000: 2e9c 023e 6e8c e93d 4ead 593c 38d9 af3e
00000010: 0843 6f3e 838a 733e 776b 623e 0f96 8f3e
00000020: 33fa a03e adb9 d33d 7139 373e 1f3c 29be
00000030: 24c6 2c3c f957 593e b2d7 8ebe 1c0f a23e
00000040: e633 01be 046d fe3d 57d2 0a3c 09c1 03be
00000050: aab7 d93d deeb 143e 447e fb3d 01f8 c33b
00000060: b2fb a33e 32d3 853e f7fa 69bd 9ef4 6c3e
00000070: 1338 d23d fe39 483e 9952 4e3e 09e5 ab3e
00000080: 07d6 763e f605 8f3e c87b d93c 55a0 46be
00000090: 59c8 96bc ca50 02be 76d7 763e a396 e23d
000000a0: 3ee8 843e 909e e4bd 13cf 39bd ee97 3b3e
000000b0: 7a25 e13d 30c2 81bd 9b41 8f3d fd9a 333d
000000c0: fa93 2d3e 23d5 b6bd 20c2 4cbe 49ba aa3e
000000d0: bcfb a33d 799f d93c f1f1 6ebe 70a3 5a3e
000000e0: edf2 bb3e ccfa 96bd 7238 d2bd 68d4 823e
000000f0: 96f6 843d c2a4 7a3e 1c85 90bc f10f 05be
00000100: 8260 213e ee33 ca3c 3b19 653d 9aa1 043e
00000110: 2d19 d9bc 4517 8d3d 13ca 183d 6bf0 0d3e
00000120: 76c4 863e 27de 86bd 8eb1 523e fadd 33be
00000130: 7ee6 623e 3540 893e 96b9 6e3e 54dd 7cbe
00000140: 2375 183d 28a6 333d ae5a be3e 53a6 253e
00000150: efb7 4f3e 9941 32be 7077 863e 95cf 903e
00000160: a4f4 ecbd 0c16 053e e311 04be 84be 513e
00000170: cd1e 14bd 2b80 9c3d 4959 823d 060a 583e
00000180: 1c9d f53b 33a0 383e 60a5 b93d 68f8 853e
00000190: d565 9a3e 3af7 8c3d 8089 893d 09e0 0f3d
000001a0: bf17 4e3e 0ea6 aa3e 030a 8f3e 509d 913e
000001b0: c6e8 1abd 55a7 abbd e4b9 eebd cb8c 963e
000001c0: fb34 803e 5516 aa3e 6037 97bd ea09 5a3e
000001d0: 8c34 5d3e 32a6 e63d ad2d 253e c0a9 b03e
000001e0: f776 bb3d 605e a0bb 56af 8e3e ddd3 cd3e
000001f0: 861d 44bd daef 39bd 1c21 dcbd edc7 8a3d

net.2.weight f4 [128, 128]
0.028011916 0.0362109 -0.21715963 -0.36060756 0.07522358 0.08324464 -0.10335135 -0.030272624
-0.30959922 -0.016500883 0.0017898509 0.06548603 -0.22221519 0.069060385 0.13548163 0.0009835046
0.15827087 -0.06519712 0.12253626 -0.10383155 0.04117711 -0.003920118 0.07170325 -0.02253029
-0.071098275 -0.15089212 0.22042724 -0.089539684 -0.24231878 -0.21081936 -0.11265688 -0.023235658
-0.001674965 -0.035533097 0.12539448 0.08325778 -0.27387673 0.04964975 0.06525598 -0.16860008
0.0061036516 -0.3289834 0.2894287 -0.036860924 0.116602756 0.08754361 0.0564218 -0.1252816
-0.19192936 0.019377496 0.21103466 -0.0846279 0.06487547 -0.063938856 0.18481274 -0.039520737
0.025437381 -0.2399476 0.024975406 -0.2859142 -0.18769933 0.019171497 -0.062818296 0.2411217
0.06791248 -0.04216776 0.06813331 0.08500378 -0.0434081 0.10368593 0.043879695 0.0347963
0.05524012 -0.021862663 0.05425508 0.14327604 -0.0031457779 0.0137433 -0.10585727 0.14628112
0.07781586 -0.008868165 0.008886738 0.11838669 -0.072965406 0.09540266 -0.26404372 -0.016529975
0.009466635 -0.025633184 0.09691313 -0.033748075 -0.047973927 0.09786183 -0.21084398 -0.06168755
-0.18716902 -0.0062183817 0.043871827 -0.018490458 -0.20259558 -0.025526792 0.101653546 -0.145426
0.015093331 -0.07260855 0.041883282 -0.00900429 -0.11538129 0.23986275 0.15682907 -0.011171307
0.077762224 0.036155634 0.22863127 -0.026425883 0.09006854 0.040698804 -0.01996859 -0.062270205
-0.14528221 0.07658271 0.021204755 0.023727978 0.0031705592 0.08619405 0.24262954 0.06783853
0.24043362 0.18026914 -0.23909469 0.22240768 0.23914309 0.20358631 0.42771414 0.1474891
0.18935916 0.046600122 0.19892997 0.037619602 -0.1312005 0.19329605 0.006658488 0.26303896
0.020132298 0.22597 0.2265782 0.17096174 0.1803883 0.1278211 0.19438592 -0.24090788
0.42202967 0.16740082 -0.024651174 0.15478548 0.21433322 0.25298446 0.14792317 0.30319703
0.15076151 0.2074698 0.21637887 -0.34122965 0.05212275 0.07349796 0.020572308 0.019447288
0.06416969 -0.050723396 -0.27670604 0.19231951 0.1450067 0.04005002 0.09085193 0.033169962
-0.026536403 0.06387009 0.10060522 0.34579575 0.1334262 0.14574388 0.16337962 0.13488634
0.17702383 -0.009757098 -0.28023377 0.3324797 0.1551112 0.095667206 -0.22979914 -0.07125286
0.05320167 0.079070285 0.25843963 0.06949768 0.16123223 0.047304217 0.008803894 0.288377
0.11182172 0.09185281 0.16435891 -0.043270636 0.10597192 0.1627934 0.2615402 -0.21375243
0.13352324 0.08050431 0.12763686 0.15140906 0.2825667 -0.0133229485 0.2609081 0.19820322
0.108555384 0.19412585 0.076950975 0.21934345 0.01219159 0.17120728 0.26988927 0.090795174
0.013144761 0.07436346 0.149022 0.10328188 0.23705135 0.13121869 0.04426494 0.07339364
0.07203402 0.25533873 0.23861061 0.34443706 0.09223502 0.20706268 0.12266271 0.12593728
0.1826565 0.24922912 -0.20100136 0.21118173 0.21279359 0.07277381 0.048155576 0.1863444
0.09457179 0.18753223 0.21296413 0.26660383 -0.06541968 -0.10869982 -0.16867611 -0.0009171899
00000000: 3f79 e53c e151 143d 185f 5ebe 8ea1 b8be
00000010: d20e 9a3d 2a7c aa3d dfa9 d3bd 4bfe f7bc
00000020: ca83 9ebe dc2c 87bc 6e99 ea3a 8a1d 863d
00000030: 618c 63be 886f 8d3d b2bb 0a3e f0e8 803a
00000040: c211 223e 1186 85bd 4af4 fa3d a3a5 d4bd
00000050: 54a9 283d 5574 80bb 27d9 923d 7191 b8bc
00000060: f99b 91bd 7783 1abe aeb7 613e 9560 b7bd
00000070: 6a22 78be 08e1 57be a6b8 e6bd b558 bebc
00000080: 808a dbba 278b 11bd 6967 003e 0e83 aa3d
00000090: 9239 8cbe 895d 4b3d eda4 853d 80a5 2cbe
000000a0: 2401 c83b 8370 a8be 0030 943e 7bfb 16bd
000000b0: 6dcd ee3d 104a b33d 8c1a 673d d249 00be
000000c0: 2189 44be 8ebd 9e3c 7819 583e 6451 adbd
000000d0: 6edd 843d 60f2 82bd 8d3f 3d3e 7fe0 21bd
000000e0: 0e62 d03c d3b4 75be 3999 cc3c 5963 92be
000000f0: 4134 40be 8b0d 9d3c e1a6 80bd 9be8 763e
00000100: b315 8b3d 1ab8 2cbd 7a89 8b3d 7616 ae3d
00000110: b1cc 31bd 4a59 d43d 32bb 333d 9186 0e3d
00000120: 7743 623d 5419 b3bc 933a 5e3d f4b6 123e
00000130: 6529 4ebb 942b 613c b2cb d8bd b8ca 153e
00000140: ec5d 9f3d c84b 11bc ae99 113c b974 f23d
00000150: e36e 95bd 7862 c33d bd30 87be df69 87bc
00000160: f219 1b3c affc d1bc 647a c63d 6c3b 0abd
00000170: 4f80 44bd c86b c83d 7ce7 57be 16ac 7cbd
00000180: 3ca9 3fbe 91c3 cbbb f2b2 333d 4d79 97bc
00000190: 3775 4fbe 901d d1bc bc2f d03d 8eea 14be
000001a0: 054a 773c cbb3 94bd ce8d 2b3d bb86 13bc
000001b0: 074d ecbd 959e 753e cd97 203e dc07 37bc
000001c0: cd41 9f3d ee17 143d 511e 6a3e 187b d8bc
000001d0: db75 b83d cab3 263d 2b95 a3bc 0b0f 7fbd
000001e0: dcc4 14be 65d7 9c3d 98b5 ad3c 2d61 c23c
000001f0: 28c9 4f3b 8286 b03d e173 783e edee 8a3d
00000200: 3b34 763e 7998 383e 3dd5 74be d7be 633e
00000210: ede1 743e ee78 503e 59fd da3e 6207 173e
00000220: 5ee7 413e c5df 3e3d 4cb4 4b3e 0317 1a3d
00000230: 6d59 06be 66ef 453e 722f da3b 0bad 863e
00000240: 7dec a43c ae64 673e 1e04 683e 9810 2f3e
00000250: b6b7 383e 89e3 023e 1a0d 473e 8eb0 76be
00000260: 4614 d83e 1f6b 2b3e 42f1 c9bc 1680 1e3e
00000270: 2b7a 5b3e 2e87 813e 2c79 173e a43c 9b3e
00000280: 3a61 1a3e f772 543e 6c92 5d3e a7b5 aebe
00000290: aa7e 553d 1986 963d 4287 a83c eb4f 9f3c
000002a0: 666b 833d 56c3 4fbd 6aac 8dbe 68ef 443e
000002b0: a37c 143e 7d0b 243d 9410 ba3d 3add 073d
000002c0: df62 d9bc 52ce 823d 1c0a ce3d 240c b13e
000002d0: e1a0 083e e23d 153e fd4c 273e a51f 0a3e
000002e0: bc45 353e 3cdc 1fbc cd7a 8fbe c73a aa3e
000002f0: 78d5 1e3e 2bed c33d 7750 6bbe 05ed 91bd
00000300: ffe9 593d 9aef a13d 3352 843e cd54 8e3d
00000310: 101a 253e 11c2 413d 353e 103c 26a6 933e
00000320: c902 e53d 531d bc3d b44d 283e 8d3c 31bd
00000330: ce07 d93d 50b3 263e 99e8 853e ebe1 5abe
00000340: 51ba 083e 72df a43d 3db3 023e fa0a 1b3e
00000350: 95ac 903e 7f48 5abc bf95 853e c9f5 4a3e
00000360: 4952 de3d edc8 463e 7998 9d3d 929b 603e
00000370: 3cbf 473c f650 2f3e ed2e 8a3e d2f2 b93d
00000380: 205d 573c df4b 983d 3999 183e 7385 d33d
00000390: 97bd 723e 315e 063e 274f 353d 684f 963d
000003a0: 9386 933d c2bb 823e 5756 743e 0e5a b03e
000003b0: b7e5 bc3d 3d08 543e 9636 fb3d b4f5 003e
000003c0: 4e0a 3b3e eb35 7f3e 4dd3 4dbe 0640 583e
000003d0: 90e6 593e 6f0a 953d c83e 453d 11d1 3e3e
000003e0: dbae c13d 7308 403e 4513 5a3e 4c80 883e
000003f0: c1fa 85bd 039e debd 6eb9 2cbe 926f 70ba

net.2.bias f4 [128]
-0.27931628 0.21439153 0.1978829 0.090222016 0.0930806 -0.19873685 -0.015825301 0.14609385
0.21492837 -0.151527 -0.06560549 -0.15625985 0.16847734 -0.027671274 0.16928673 0.15780857
0.08333959 0.2364803 0.020898499 -0.06520183 -0.022775054 0.13045394 0.021043299 0.021141386
-0.0020771953 -0.16030851 -0.047758427 -0.07950796 0.23722614 0.20206228 0.14210266 0.12031558
-0.07169498 0.17958401 -0.108000256 0.21524929 -0.021675114 -0.08179555 0.15682888 -0.07368717
-0.091306284 -0.08648375 -0.014458379 0.20691542 0.15796961 0.13536981 0.1231256 -0.03254301
0.072886325 -0.12740707 -0.16867527 0.05669428 0.055929344 0.20576729 0.18766019 -0.088352025
-0.026158432 -0.11877126 -0.0040567657 -0.044915136 -0.05927523 0.05723862 0.07533314 -0.047967188
-0.16418484 0.12884614 -0.046086233 -0.11374301 0.08600651 0.24232712 0.16868016 0.15396996
-0.06975802 -0.12648948 0.2751222 0.21422753 0.20312084 -0.040369805 0.02690141 -0.2040791
0.26420605 -0.0066011925 0.15094618 -0.05952262 0.0025017813 0.2541988 0.14631005 -0.023277404
-0.060726974 0.026375018 0.23725702 -0.11925707 -0.13719997 -0.24185684 0.004797334 0.07383883
0.20509505 -0.24480939 -0.08764621 0.13216954 0.035957724 0.069002 0.093278974 0.08155208
-0.03402041 -0.04724443 0.14991683 -0.00020205975 0.15578565 0.25892296 0.26889887 -0.02921043
-0.07833456 -0.10251395 -0.15037966 0.110171445 0.076914266 0.19531173 -0.084570244 0.09594098
-0.14253657 -0.0984723 0.04091416 -0.121611565 -0.008612724 0.09036173 -0.079355545 -0.2170505
00000000: 8b02 8fbe 7489 5b3e d1a1 4a3e 52c6 b83d
00000010: 0ba1 be3d ac81 4bbe 10a4 81bc a099 153e
00000020: 2f16 5c3e e529 1bbe 2c5c 86bd 9502 20be
00000030: 5385 2c3e deae e2bc 8059 2d3e 9298 213e
00000040: f2ad aa3d e427 723e 5433 ab3c 8988 85bd
00000050: c092 babc b895 053e ff62 ac3c b330 ad3c
00000060: 8e21 08bb ea27 24be 579e 43bd 12d5 a2bd
00000070: 69eb 723e 6ae9 4e3e 5c83 113e 0468 f63d
00000080: d1d4 92bd dfe4 373e 3d2f ddbd 4f6a 5c3e
00000090: 0290 b1bc 6d84 a7bd c097 203e 4de9 96bd
000000a0: cafe babd 641e b1bd d6e2 6cbc a3e1 533e
000000b0: c9c2 213e 629e 0a3e 4629 fc3d d24b 05bd
000000c0: 6d45 953d 0077 02be 36b9 2cbe 4338 683d
000000d0: 2b16 653d a9b4 523e fe29 403e e8f1 b4bd
000000e0: 354a d6bc 593e f3bd 9eee 84bb eff8 37bd
000000f0: 95ca 72bd 0b73 6a3d 4348 9a3d 3e79 44bd
00000100: 1220 28be 3ef0 033e ebc4 3cbd 18f2 e8bd
00000110: 2e24 b03d 9a24 783e 7eba 2c3e 4daa 1d3e
00000120: 4bdd 8ebd 7586 01be d1dc 8c3e 765e 5b3e
00000130: e9fe 4f3e cf5a 25bd 5960 dc3c 1dfa 50be
00000140: 0446 873e d14e d8bb a391 1a3e fecd 73bd
00000150: edf4 233b 5826 823e 4dd2 153e 41b0 bebc
00000160: d9bc 78bd 6c10 d83c 81f3 723e 0d3d f4bd
00000170: 267e 0cbe 52a9 77be f432 9d3b d038 973d
00000180: 7004 523e 50af 7abe db7f b3bd 7457 073e
00000190: 6848 133d ec50 8d3d 0c09 bf3d c704 a73d
000001a0: fc58 0bbd 6083 41bd cc83 193e 00e0 53b9
000001b0: 4686 1f3e 8d91 843e 1dad 893e b64a efbc
000001c0: df6d a0bd d5f2 d1bd 20fd 19be 91a1 e13d
000001d0: 3a85 9d3d ccff 473e 2a33 adbd b47c c43d
000001e0: 1bf5 11be d8ab c9bd 9b95 273d 7c0f f9bd
000001f0: 621c 0dbc 920f b93d 2985 a2bd 7c42 5ebe

net.4.weight f4 [4, 128]
-0.20086652 0.15019214 0.31016755 -0.058947597 0.08956979 -0.17467628 -0.026822105 -0.06093769
0.2408471 0.0070567313 -0.09265064 -0.030040808 0.113158375 -0.007028193 0.1854916 -0.0029496448
-0.007057395 0.3600464 0.15003386 -0.050126035 -0.017350912 0.24148943 0.043987986 0.023651427
0.0062875985 -0.3013846 -0.25795478 -0.022550322 0.15700567 0.07301395 0.25461048 0.20817457
-0.22086462 -0.037923418 0.13457114 0.28975126 0.28653747 -0.05770369 0.18065175 -0.0058640614
-0.043160494 -0.1392952 -0.2917747 0.27388442 0.20206475 0.18294804 0.13965362 0.2746533
-0.06731072 -0.14076436 -0.08738193 0.08515919 0.10886171 0.25143132 0.23238705 0.2424147
0.241488 -0.13452932 -0.032379236 0.37194523 0.13285048 -0.22452165 0.16927542 0.0102880895
-0.09336959 0.126117 -0.25926936 0.004306212 -0.006677705 0.22513075 -0.0063556894 0.052715953
0.31395087 0.17307495 0.24392731 0.19920973 0.1588217 0.06270416 0.06978839 0.018103715
0.040061716 -0.005130047 0.2004368 -0.12697063 0.33345678 0.108911335 0.1957717 0.405154
-0.14003178 -0.2015347 0.23788464 0.3581551 0.051893152 0.033834 0.11165369 0.15718396
0.18979159 -0.099828765 -0.33376992 6.4203196e-05 -0.18172653 -0.23606281 -0.05619378 -0.15953432
-0.030464504 0.018588446 0.17630565 -0.03915947 0.21318385 0.15895064 0.3120653 -0.04303131
0.01774478 -0.17924355 -0.026698036 0.4004262 -0.007719218 0.19730116 -0.15541354 -0.031768374
0.041462865 -0.33826646 0.13735032 0.120128684 -0.28707868 -0.06685018 -0.0712827 -0.07907409
-0.0827031 0.22082992 0.18556097 0.085168056 0.05636603 0.19858223 -0.028476339 0.14815447
0.3366803 0.016402472 -0.053746305 0.16354494 0.13183232 0.028339503 0.29059416 0.008546981
0.13520826 0.24492891 -0.06433165 0.03426771 -0.011342014 0.30950245 -0.14696798 -0.015683407
-0.12137253 0.021535898 0.07716332 -0.005471103 0.19586748 0.26544225 0.31570268 0.07527602
0.08110402 0.111146316 0.15991314 0.00632325 0.16750607 0.22048111 0.141337 0.00057371054
0.02451921 -0.115307696 -0.11587125 -0.0007548792 -0.005985873 -0.020373613 -0.09482245 -0.27966502
-0.027761422 -0.082083836 -0.25603363 -0.103392884 -0.03375243 0.18772191 0.09180415 -0.21804455
0.18821391 -0.108199574 0.0011584053 0.10107137 0.17021331 -0.13273646 0.16467443 0.009337165
-0.2437103 0.3109146 -0.074011795 -0.19907428 0.15376152 0.33054185 0.054109123 0.17702767
0.13429795 0.088417225 0.31356686 0.26044467 0.21998549 0.0062093586 -0.06641808 -0.3610085
0.18935764 0.25669858 -0.05406217 0.19795871 -0.036635563 0.042843025 0.27155972 -0.075887024
-0.15196048 -0.27085328 0.29572123 -0.2754222 0.1756803 -0.2390619 0.21849735 0.29613063
0.319212 0.15361753 -0.1832252 0.09749346 -0.19653098 -0.20370759 0.0007445174 -0.07259192
-0.11373182 -0.022693157 0.07977948 -0.039256334 0.26484126 0.1109754 0.19597383 -0.026931405
-0.016070142 0.2267719 -0.25263646 -0.44848537 0.043647 0.24040519 -0.11791483 0.12774098
-0.15307467 -0.23918502 0.1580217 0.21996024 -0.010784834 0.09324251 0.17796548 0.15911464
00000000: f4af 4dbe f8cb 193e 48ce 9e3e 0973 71bd
00000010: 5e70 b73d 57de 32be 08ba dbbc cd99 79bd
00000020: 9fa0 763e 273c e73b 9ebf bdbd 2418 f6bc
00000030: 94bf e73d c24c e6bb 83f1 3d3e d44e 41bb
00000040: b841 e7bb 0058 b83e 7aa2 193e f550 4dbd
00000050: 8023 8ebc 0149 773e bf2c 343d a3c0 c13c
00000060: 3308 ce3b 154f 9abe a612 84be 74bb b8bc
00000070: 18c6 203e 5688 953d 4e5c 823e b72b 553e
00000080: 562a 62be 9655 1bbd 04cd 093e 475a 943e
00000090: 0ab5 923e b45a 6cbd c6fc 383e 5027 c0bb
000000a0: 0fc9 30bd 67a3 0ebe 7e63 95be 943a 8c3e
000000b0: 10ea 4e3e bb56 3b3e 5c01 0f3e 5b9f 8c3e
000000c0: 34da 89bd 8824 10be 4cf5 b2bd f167 ae3d
000000d0: e3f2 de3d 9bbb 803e dff6 6d3e 8f3b 783e
000000e0: a148 773e 0ec2 09be 17a0 04bd 9b6f be3e
000000f0: f509 083e 01e9 65be 8956 2d3e 608f 283c
00000100: 8e38 bfbd d124 013e f4be 84be 201b 8d3b
00000110: a6d0 dabb ad88 663e 6343 d0bb afec 573d
00000120: 2bbe a03e 8f3a 313e 15c8 793e a3fd 4b3e
00000130: 28a2 223e 0a6b 803d 37ed 8e3d 3e4e 943c
00000140: c117 243d f419 a8bb 4e3f 4d3e 9704 02be
00000150: d9ba aa3e e80c df3d 6078 483e 5870 cf3e
00000160: 7e64 0fbe 1d5f 4ebe 0898 733e 1b60 b73e
00000170: ea8d 543d 8595 0a3d b1aa e43d d5f4 203e
00000180: ba58 423e 0673 ccbd e4e3 aabe d4a4 8638
00000190: 8516 3abe 73ba 71be 732b 66bd f75c 23be
000001a0: b290 f9bc cc46 983c 7889 343e ae65 20bd
000001b0: de4c 5a3e f5c3 223e 06c7 9f3e 9941 30bd
000001c0: 805d 913c 9f8b 37be d7b5 dabc aa04 cd3e
000001d0: 7ef1 fcbb 5109 4a3e ba24 1fbe 8e1f 02bd
000001e0: f7d4 293d 4331 adbe 90a5 0c3e 0706 f63d
000001f0: fafb 92be bfe8 88bd aafc 91bd 99f1 a1bd
00000200: 3e60 a9bd 3d21 623e b203 3e3e 976c ae3d
00000210: 11e0 663d 2459 4b3e 3647 e9bc ceb5 173e
00000220: 5c61 ac3e 7a5e 863c 1625 5cbd 5378 273e
00000230: 0dff 063e 3f28 e83c c2c8 943e a308 0c3c
00000240: 0974 0a3e a5ce 7a3e 50c0 83bd 4c5c 0c3d
00000250: dbd3 39bc 1b77 9e3e c67e 16be 7d7a 80bc
00000260: 2992 f8bd 0d6c b03c cd07 9e3d f046 b3bb
00000270: 7c91 483e 0ce8 873e c8a3 a13e 502a 9a3d
00000280: dd19 a63d aea0 e33d 45c0 233e 4433 cf3b
00000290: b686 2b3e cdc5 613e a6ba 103e 1065 163a
000002a0: 83dc c83c 7126 ecbd e84d edbd 16e3 45ba
000002b0: 2425 c4bb 90e6 a6bc 4632 c2bd 4130 8fbe
000002c0: ec6b e3bc 921b a8bd d716 83be a6bf d3bd
000002d0: fd3f 0abd 2c3a 403e d003 bc3d 1247 5fbe
000002e0: 26bb 403e bd97 ddbd a2d5 973a 82fe ce3d
000002f0: 664c 2e3e 11ec 07be 6aa0 283e e9fa 183c
00000300: 318f 79be 3330 9f3e 7f93 97bd 21da 4bbe
00000310: a973 1d3e c83c a93e 87a1 5d3d be46 353e
00000320: 6785 093e 1714 b53d d68b a03e 0159 853e
00000330: e043 613e e077 cb3b 3406 88bd 1bd6 b8be
00000340: f8e6 413e ff6d 833e 4b70 5dbd b0b5 4a3e
00000350: 2c0f 16bd 2b7c 2f3d e009 8b3e a86a 9bbd
00000360: 879b 1bbe 48ad 8abe c668 973e 2304 8dbe
00000370: 89e5 333e a5cc 74be c5bd 5f3e 6f9e 973e
00000380: c16f a33e ea4d 1d3e 639f 3bbe a7aa c73d
00000390: 6b3f 49be b998 50be b82b 433a 13ab 94bd
000003a0: 3aec e8bd 00e7 b9bc 6d63 a33d 40cb 20bd
000003b0: 4699 873e 1247 e33d 5dad 483e 409f dcbc
000003c0: 88a5 83bc e536 683e 9159 81be e09f e5be
000003d0: 32c7 323d c72c 763e 557d f1bd 88ce 023e
000003e0: 9bbf 1cbe ebec 74be 71d0 213e 423d 613e
000003f0: dfb2 30bc eef5 be3d 953c 363e f3ee 223e

net.4.bias f4 [4]
0.02296367 0.05774307 0.1672791 0.14594468
00000000: 4e1e bc3c ff83 6c3d 364b 2b3e 8672 153e
